log/DeepLabV3_BlazePose_separable_conv_regressor_weights.pt (torch, 463849 bytes, 11 tensors)

depthwise.weight f4 [1, 1, 3]
000000 bd 48 73 be d4 6e ef 3e 66 01 33 be
       -0.23758216 0.46764243 -0.17481002

pointwise.weight f4 [16, 1, 1]
000000 69 01 39 bf 41 74 cd 3e 2b 3e 26 bf fa 54 4a 3f
       -0.72267777 0.40127757 -0.6493861 0.79035914
000010 6a b6 15 3f c6 85 1f bf 0a 7f 50 3f 3a 0d 65 bf
       0.58481467 -0.623135 0.81443846 -0.8947331
000020 1a 41 a4 be 37 2b c3 3d f2 2e de be 06 ff 6b be
       -0.3208092 0.09529727 -0.4339519 -0.23046502
000030 a4 09 71 bf a0 6e fc be 80 3c 05 3f 35 de 97 be
       -0.94155335 -0.4930315 0.5204544 -0.29661718

pointwise.bias f4 [16]
000000 70 e7 49 bf 8f 7d 71 3f cc be e8 3e 43 71 3b 3f
       -0.7886877 0.9433221 0.45458066 0.732197
000010 ca 54 ba be 0f 7b f3 be 58 89 3b bf 54 91 3e bf
       -0.36392814 -0.47554824 -0.73256445 -0.74440503
000020 82 83 c0 3e 04 1d 1c bf 17 5b 2d be 11 2b 91 3d
       0.37600332 -0.60981774 -0.1692928 0.070882924
000030 0e 48 11 bf cb 7c 30 3f 13 47 17 bf 2d fe fb be
       -0.5675057 0.6894042 -0.59092826 -0.49217358

conv2.0.weight f4 [32, 1, 3]
000000 6d f0 dd 3e f7 e1 af 3e 69 43 8b 3e 4e 9b a7 be
       0.43347493 0.34352085 0.27199867 -0.32735676
000010 44 8b 03 3f de d0 1e 3e ec 3f 0a 3e ca 8e c3 3e
       0.5138438 0.15509364 0.13500947 0.38194877
000020 94 f2 ec bd 8c e7 e4 3d 7c ca 7b be 12 03 20 be
       -0.115697056 0.111769766 -0.2458896 -0.15626171
000030 e1 99 ef 3e 30 5f ab 3e 09 7b 03 bf 4c 76 cc 3e
       0.46797088 0.3347106 -0.5135961 0.39934003
000040 21 27 8e bc bf 06 90 be 6d 18 19 3e 2f 82 bb 3e
       -0.017352642 -0.28130147 0.14950724 0.3662276
000050 38 6d 3b 3e fb ca ae 3e 06 f5 cd 3e 85 d3 b9 3d
       0.18303382 0.34139237 0.40226 0.09073547
000060 12 f7 b4 be 7a c6 51 bd db 5e 3d be 57 ac 85 3d
       -0.3534475 -0.051214673 -0.18493216 0.06527012
000070 5a e0 8f be 99 c3 c6 be 11 ba db 3e 7d 1b 22 3e
       -0.28100854 -0.38821104 0.42915395 0.15830798
000080 bc 36 2f be 52 09 cf 3e 39 95 b6 3e 36 aa fa 3e
       -0.17110723 0.40436798 0.35660723 0.48957986
000090 65 18 b2 bd 3a 45 b0 3e ed 80 25 3d c7 27 f9 3e
       -0.08696059 0.34427816 0.040406156 0.4866316
0000a0 77 10 a4 bd a8 94 93 3d 3e 82 b6 3e 55 fe f6 be
       -0.08010953 0.07206088 0.35646242 -0.48240915
0000b0 89 ac 26 3e 69 48 bf be c3 48 eb 3e ed 92 0a 3f
       0.16276754 -0.37359932 0.4595395 0.5413044
0000c0 09 c1 74 3d 20 3e 6e 3e 9d c9 81 bd 4c 85 cc be
       0.059754405 0.23265886 -0.06337283 -0.39945447
0000d0 9d 14 bf be df 2a 07 3f a2 2f 8f 3e 06 20 a2 3e
       -0.37320414 0.5279979 0.27966028 0.31665057
0000e0 52 50 e5 3d 67 d5 c0 3d 52 3e b8 3e 8b a6 05 3e
       0.111969605 0.09415703 0.35985047 0.13051812
0000f0 ce be b7 3e 1d 89 e2 3e 4c 9c cf 3e a1 d5 df be
       0.3588776 0.44245234 0.40548933 -0.43717673
000100 de ea a4 3d e6 ea c5 3e 34 c3 bf be 6f 5c 06 bf
       0.0805261 0.38655776 -0.37453616 -0.5248479
000110 ea 15 05 bf 72 bc a8 3e 92 84 fa be af 38 7e 3e
       -0.51986563 0.32956272 -0.48929268 0.2482631
000120 82 d8 f1 be 7f df ae be 9c 1f a2 be 45 b0 06 3f
       -0.47235495 -0.3415489 -0.3166474 0.52612716
000130 6a 7c ad 38 dd 79 29 3e 6f 45 3f be ab 76 61 3d
       8.272457e-05 0.16550393 -0.1867883 0.05504481
000140 69 f4 60 3e 15 f9 94 3c 2e 09 41 bc 91 09 eb 3e
       0.21968235 0.018185178 -0.011781974 0.45905736
000150 ac 39 ba be e3 b8 02 bf 61 ac d0 be 91 a7 8e 3e
       -0.36372125 -0.51063365 -0.40756515 0.27862218
000160 f8 09 d2 3e af 11 26 3d 43 44 87 bd 7d d2 81 be
       0.4102323 0.04054421 -0.06604817 -0.25355902
000170 5d 8b 03 bd a6 29 d6 3d 2c 20 07 3f 97 65 27 bd
       -0.03211533 0.104571626 0.52783465 -0.040868368

conv2.0.bias f4 [32]
000000 2f 7d d2 be af a3 a3 bd e0 83 f4 be 27 7f 88 3d
       -0.41111133 -0.079902045 -0.47756863 0.066648774
000010 7f 0e 09 be 2d 91 26 3d 95 97 9b be 51 4f ee be
       -0.13384436 0.040665794 -0.30389085 -0.4654489
000020 0a 47 64 3e a9 4a 80 3d 9d cf 32 bd 9a e5 07 be
       0.22292724 0.0626424 -0.043655027 -0.1327118
000030 2d 88 d9 be 85 4b 82 3d 31 ee e1 be 1f 58 33 be
       -0.42486706 0.063620605 -0.44127038 -0.17514084
000040 30 9e da bd 4b de 8c 3e 99 b8 0c bf 26 0e a0 be
       -0.10674703 0.27513346 -0.54969174 -0.31260794
000050 7a 33 cc 3e 45 40 2f bd 08 26 26 be c4 2d 0c bf
       0.39883024 -0.0427859 -0.16225445 -0.5475733
000060 6b df 6c 3e 20 35 88 be 3d fc 3f be c6 4c c7 3e
       0.23132102 -0.2660303 -0.18748565 0.3892576
000070 9e db fd 3e 32 79 0f bf b1 c7 e4 3e bf ed f7 be
       0.49581617 -0.56044304 0.44683602 -0.48423573

conv2.1.weight f4 [32, 32, 1]
000000 10 10 21 3e eb d4 c1 bc 14 2c 10 3e 6f 13 89 3d
       0.15728784 -0.023661098 0.14079314 0.0669316
000010 ec 07 0b bc 67 ab d7 3c 3e 8d 62 bc b3 b2 d3 bd
       -0.008485775 0.026326848 -0.01382762 -0.103368185
000020 a0 7d 28 3e 0e e3 cb 3d b6 e7 9a bd f6 5d 22 3d
       0.16454172 0.099554166 -0.075637266 0.03964039
000030 26 2d 21 3e 69 27 69 3d 0a 99 2d 3d ef 10 c5 3c
       0.15739879 0.05692235 0.042382278 0.024055926
000040 12 9c 23 bd cf 7f d5 3d c1 bc 64 3d e2 e3 13 3e
       -0.039943762 0.10424768 0.055844072 0.14442399
000050 35 db 1b 3e 29 d9 c6 3d 6f 05 d7 bd 25 45 14 be
       0.1522034 0.09709389 -0.10499083 -0.14479502
000060 57 00 de 3d 1c 1a aa 3c 29 54 20 3e 67 a7 34 3e
       0.108399086 0.020764403 0.15657105 0.17641984
000070 cb 0b b8 bd 44 66 35 3e 07 2e 96 bb 6e 2e a2 3c
       -0.08986624 0.17714792 -0.0045831236 0.01979753
000080 60 1e 91 bd bf c0 13 3e 4d 8e ee 3d 11 c2 a6 3d
       -0.07085872 0.14428996 0.116482355 0.08142484
000090 dd 9a 18 3e 40 bb 01 3e 06 ee 6f 3d d3 70 39 3d
       0.14902826 0.12669086 0.058576606 0.045273613
0000a0 40 50 11 be 76 c1 94 3d 72 ea 2f 3e d7 12 72 3d
       -0.14190769 0.07263462 0.17179278 0.0591
0000b0 93 a1 ed 3d 9a ab 26 bd 7c 7f f2 bc 32 a3 ca 3b
       0.116030835 -0.040690996 -0.029601805 0.006184005
0000c0 51 d9 a5 bd 67 8f 60 bd 43 6b 02 3e 22 32 52 bc
       -0.080980904 -0.05482426 0.1273623 -0.012829335
0000d0 5e 2e 13 3e 22 a1 14 3e b6 ca 95 bc 2e de a8 bc
       0.14373156 0.14514592 -0.018285137 -0.020613756
0000e0 82 80 de bd c4 5c 81 3c 8e 03 8b bd 43 58 42 bd
       -0.10864355 0.015791304 -0.067877874 -0.047447454
0000f0 67 ae 5d 3d 72 06 22 3d ee 9b 03 be 88 eb 08 3e
       0.0541214 0.039556928 -0.12852451 0.13371098
000100 cc 2e 57 bd 1d 4b 09 bd d5 74 32 be 77 6b d1 bc
       -0.052534863 -0.0335189 -0.1742738 -0.025563939
000110 c1 3c f6 3d 3d 4a ab bd b2 00 80 bd 91 2d 33 be
       0.12023307 -0.08363769 -0.062501326 -0.17497851
000120 81 79 14 3d f8 7c b9 bd b9 59 be 3d 18 83 28 3d
       0.036248688 -0.09057039 0.09294457 0.041140646
000130 7b 8f 24 be 1f fd b0 3d 00 e5 11 be c3 1c be 3d
       -0.16070358 0.08642029 -0.14247513 0.092828296
000140 c2 5b 01 be 92 42 33 3e dd f1 27 3e d5 e5 b6 3d
       -0.12632659 0.17505863 0.16400857 0.08930556
000150 cc 61 fe 3d df 55 a1 bd d8 60 6f bd 3c d2 dd bd
       0.12420997 -0.07877707 -0.058441967 -0.10831115
000160 0c 6f 13 be 22 63 92 3d 23 a0 b8 bd 1e 51 04 be
       -0.1439783 0.07147814 -0.09014919 -0.12921569
000170 30 67 83 bd 2d 1d 9f 3d e2 09 f9 bd 0d de 70 3c
       -0.06416166 0.07769237 -0.12160088 0.0147013785
000180 76 9d 23 bc ad 46 27 3e 43 e4 b0 bd f1 cd 13 be
       -0.009986272 0.16335554 -0.086372875 -0.14434029
000190 61 83 e8 bc 5f c5 71 3d b5 92 29 b9 bf d2 e1 3d
       -0.028382959 0.05902612 -0.00016171749 0.11026525
0001a0 e9 2b a1 bb 12 23 39 bc 4f a0 17 3e a0 5a 7a bd
       -0.0049185646 -0.011299865 0.14807247 -0.061121583
0001b0 cc 2c 96 bd 28 b7 e5 bd f6 79 10 bc c4 e4 f7 3d
       -0.07332763 -0.11216575 -0.00881814 0.121041805
0001c0 21 10 25 be d8 43 ab bd e9 48 81 bc a2 4b 20 be
       -0.16119434 -0.083625495 -0.015781837 -0.15653852
0001d0 8b 73 02 be 15 9c fc 3d 13 1d 0a 3e 42 81 94 bd
       -0.12739389 0.12334458 0.13487653 -0.072512165
0001e0 14 6e e1 3c d6 be 94 3d 32 53 93 bc 99 a0 b1 3d
       0.02751831 0.072629616 -0.017984007 0.0867321
0001f0 a6 68 3d bc d9 a6 0c be db cb b6 bd 89 a3 36 3e
       -0.011560595 -0.13735522 -0.08925601 0.17835821
000200 24 b0 1b 3d f9 8a 5e 3d e1 e3 32 3e 0e 1a 55 bd
       0.038009778 0.054331753 0.17469741 -0.0520268
000210 05 2f 2e be 84 b7 90 bd 4a 59 0c 3e 9c e9 b7 3d
       -0.17010124 -0.07066253 0.13705936 0.08980104
000220 67 b2 af bd fa 5a 01 be d6 3e bb bd cc f7 eb bd
       -0.085789494 -0.12632361 -0.091428444 -0.11521873
000230 dc 08 e8 bd 70 ab d6 3d 74 f0 00 be b9 0d ce 3c
       -0.11329815 0.10481918 -0.12591726 0.025153028
000240 4d 5f 40 bd 7d 73 f0 bd 63 b0 99 3d 6f a3 db 3c
       -0.046965886 -0.11740778 0.07504346 0.02681133
000250 7e 3b 14 be 0e 39 15 bd ab 70 77 3d 62 be dc bd
       -0.1447582 -0.036431365 0.060410183 -0.107785
000260 64 7b 45 3d 7a 86 dd 3d 53 e6 b1 bd 24 4f 4f 3c
       0.048213378 0.10816665 -0.08686509 0.012653146
000270 a0 52 a7 bc d7 33 15 3e 2e 7e 1c be 28 c7 03 3c
       -0.02042514 0.14570557 -0.15282509 0.008043088
000280 4f 3a a4 bc 88 bc 5b bd 0a f3 62 3d 2f 33 5a 3d
       -0.020047335 -0.053646594 0.05540756 0.05327147
000290 49 0e df 3d d2 5a f9 3d 26 79 eb bd 79 da 66 3d
       0.108913966 0.12175526 -0.114977166 0.056360696
0002a0 dc ae 1a bc f4 30 cc 3d 15 e8 09 3e 8a d1 bd bd
       -0.009441104 0.099702746 0.13467439 -0.09268482
0002b0 42 fb 1a be 3e 8b b2 bd f6 cf 01 bd a8 e4 c9 3d
       -0.1513491 -0.087179646 -0.031692468 0.09858066
0002c0 e6 0f 06 be 7c 5f 85 bd 52 3f 31 be ec 45 08 be
       -0.13092002 -0.06512353 -0.17309311 -0.13307923
0002d0 ef c9 c4 bd 31 2f 82 bd 78 ad b5 bd a3 8f 25 be
       -0.09608828 -0.06356657 -0.08870977 -0.16168074
0002e0 60 4a 79 3d f4 8e e6 bd 08 b8 1f 3e 77 ea 99 bc
       0.060861945 -0.11257735 0.15597546 -0.01878856
0002f0 d3 01 20 3e ef f3 e0 bd 18 a5 d3 bc 5f 11 b6 bd
       0.15625696 -0.10984027 -0.025835559 -0.08890032
000300 ca d9 13 be 2e c3 c5 3d a9 b9 1d 3e 07 1b ed 3b
       -0.14438549 0.09656368 0.15402855 0.007235888
000310 1d 9d 34 3d 4f 53 a2 3d 05 85 5c 3d 89 a7 76 bb
       0.044095147 0.07926046 0.053837795 -0.003763648
000320 61 96 04 bd 4c 24 22 be 84 3b 87 3d 9a 49 46 bd
       -0.032369975 -0.15834159 0.066031486 -0.048410036
000330 f1 86 2a be 43 6f 05 3d ec e6 f2 bd e8 07 04 3e
       -0.16653039 0.03257681 -0.11860451 0.12893641
000340 f9 27 06 be 83 8c 31 3e fd cd ae bd bb 4b 09 bd
       -0.13101186 0.17338757 -0.08535383 -0.033519488
000350 40 41 16 be c5 1e ed bd 30 df 35 be 86 7a 1d 3e
       -0.14673328 -0.115781344 -0.1776092 0.1537877
000360 5b 33 f7 3c 14 2b 1b 3e 0c b7 40 3d 78 bf b9 bd
       0.030175855 0.15153152 0.047049567 -0.09069723
000370 ea 5d e8 3d 79 f4 2c be ac 43 63 3d 56 ec 30 3e
       0.11346038 -0.16890134 0.05548446 0.17277655
000380 a5 87 2c be b0 35 32 be e0 a8 1c 3e 50 ab 90 3d
       -0.1684862 -0.17403293 0.15298796 0.07063925
000390 dc 6c 60 3d 22 45 cc bc 68 eb 08 3e 1d 4c 80 3d
       0.054791316 -0.024935309 0.1337105 0.062645175
0003a0 1a e2 96 bd 44 0f 0c 3e 76 96 16 3e 0a 88 8f bd
       -0.07367344 0.13677698 0.14705834 -0.07008369
0003b0 7c f4 d5 3d 10 3e 1a 3e 3d 85 f2 bd 33 8a 98 bd
       0.10447022 0.15062737 -0.118418194 -0.074482344
0003c0 2e 99 a2 3d 20 73 01 bd c1 1c 35 3d f1 4c e7 3d
       0.07939373 -0.031603932 0.044216875 0.11293972
0003d0 d1 31 a6 3d bd 09 ea 3d 7c f7 09 3e 12 18 f4 bd
       0.081149705 0.11427639 0.13473314 -0.119186535
0003e0 9c ed 29 3e f6 7f f0 3d 47 21 9f 3c 34 6e 7d 3c
       0.16594547 0.117431566 0.019425048 0.015468169
0003f0 e2 8c 58 bd b1 4a c0 3d 29 e7 e2 bd 50 0d 25 3b
       -0.05286873 0.09389246 -0.110792466 0.0025184937

conv2.1.bias f4 [32]
000000 fd dc 17 bd 99 d1 11 bd 53 ae b3 3d 14 4f 06 be
       -0.037075985 -0.03560028 0.08773484 -0.13116103
000010 ad c7 f7 3d 7e c2 41 bc 99 eb a3 bb a7 0d 21 3d
       0.12098632 -0.011826156 -0.0050024507 0.03931966
000020 e3 d2 af 3d b5 94 b1 3d 3d 92 bf bd d0 2e c6 3b
       0.08585145 0.08670942 -0.093540646 0.006048061
000030 4f bb 3c 3d 90 4c 09 bc 86 f5 1f bd 1d 8e aa bd
       0.04607707 -0.00838007 -0.03905251 -0.08327887
000040 4c 83 b8 bd e6 e0 0a bc 98 c4 5b bd 75 6b a7 bd
       -0.09009418 -0.0084764715 -0.053654283 -0.08174793
000050 bb 44 c1 3d ec 53 1e be 10 1e 3c 3d 7e 33 fa bd
       0.094369374 -0.15461701 0.045927107 -0.122168526
000060 d1 36 7c bd 48 bd 1f be 45 0d 34 3e ac f2 3b bd
       -0.061575714 -0.15599549 0.17583187 -0.045885727
000070 59 90 0d 3d e3 c0 80 3d 87 a2 04 3e 7f 8b ad bd
       0.03456149 0.0628679 0.12952624 -0.084738724

fc.0.weight f4 [64, 1760]
000000 1f 53 a5 ba 61 b1 a5 3c 10 d9 8b bc cd 20 ff 3b
       -0.0012613273 0.020226182 -0.017071277 0.0077858926
000010 aa 12 ec bb 32 bb cb 3c 99 e0 07 bc 55 57 b3 bb
       -0.0072043734 0.024869535 -0.008293294 -0.0054730573
000020 2f 92 0c bc 0f 03 2b 3a d8 85 47 3c 59 40 88 bc
       -0.008579775 0.0006523588 0.012177907 -0.016632246
000030 e9 af 65 bc e9 26 4a 3c 7b d3 ae 3c 92 c2 50 3c
       -0.014018991 0.0123383785 0.021341076 0.012741702
000040 23 45 bf 3c 61 29 8e 3c 00 9a aa bb f4 1f 36 bb
       0.023348397 0.017353715 -0.0052063465 -0.0027790042
000050 95 c1 76 3a 22 7a 9e bc ef df 79 3c a3 af 87 3c
       0.0009413001 -0.019345347 0.015251144 0.016563242
000060 00 0a 99 bc 8d 67 2e 3c 7e 55 b5 bc 00 5e 2b bc
       -0.018681526 0.010644806 -0.022135492 -0.010459423
000070 43 61 91 3c 99 4b 1c bb 7a 29 8c bc f6 6a 64 bc
       0.017746573 -0.002384877 -0.017109621 -0.013941517
000080 e3 ac 8e ba 64 6b 36 bc af c8 86 bc 95 05 68 3c
       -0.0010885264 -0.011134002 -0.016453115 0.014161487
000090 9f e1 b0 ba 15 99 9c 3b 2a dc 0f bc 76 cb 01 3c
       -0.0013494975 0.004778991 -0.008780519 0.007922044
0000a0 c5 f4 37 3a 3c 54 11 3c ee a3 eb 3b b9 88 a4 bc
       0.00070173695 0.008870181 0.007191173 -0.020084726
0000b0 e1 b4 2d bc 1a d2 c0 bc 17 8f ca 3c 34 e5 59 3c
       -0.010602207 -0.023537684 0.024726434 0.013299275
0000c0 05 44 b7 bc 3d 5d 86 bc 1a b2 0c 3c 27 a2 d9 3c
       -0.022371301 -0.016401881 0.008587385 0.026566578
0000d0 cf 2e 90 3b d2 f1 10 3b 45 6f b5 3c 9b 05 27 3c
       0.0044001113 0.0022116792 0.022147784 0.010194208
0000e0 11 75 0f bc 00 93 be bc 59 b7 35 bb d6 32 3f bc
       -0.008755938 -0.023263454 -0.0027727692 -0.011669835
0000f0 aa a6 98 bb 71 19 59 bc 64 e4 52 3c 77 e8 2e 3c
       -0.00465854 -0.013250695 0.012871835 0.010675541
000100 02 68 ba 3b f7 55 29 bc ae 32 50 3b 8e f8 14 3c
       0.005688668 -0.010335437 0.0031768489 0.009092463
000110 89 f0 85 bb 18 21 89 3b 29 69 7b 3b 43 be 20 bc
       -0.004087512 0.0041848533 0.003836224 -0.009810987
000120 f3 7e bb 3a 4d ff 9f 3c d8 44 2e bc 4a 54 f6 bb
       0.0014304802 0.019530917 -0.010636531 -0.0075173723
000130 0d 68 28 3c 55 8e f9 3b d6 9c 68 3b 4a dc df bb
       0.010278714 0.0076158443 0.0035493872 -0.0068316804
000140 fb 26 54 bc fe 0f e7 3b fc e9 50 3a d9 17 33 bc
       -0.012948747 0.007051467 0.00079694367 -0.010930979
000150 9d 0e ac 3c 37 a2 68 bc 6e d6 b1 bc 67 64 4a 3c
       0.021003062 -0.014198831 -0.021708693 0.012353039
000160 35 3b c1 3c 93 df 25 3c 44 28 6c bb 53 52 3b bc
       0.023587802 0.010124105 -0.0036034742 -0.011433202
000170 1b 68 6a 3c 66 c4 4c 3c 13 79 b8 3c 55 b6 33 bc
       0.014307047 0.012497997 0.02251867 -0.010968764
000180 ab 45 95 bc d5 7a fa 3b e6 cc 8b 3a c6 fe 70 3c
       -0.018221697 0.0076440373 0.0010665923 0.01470918
000190 4e 1a a5 bc dd b1 00 3c 13 90 97 3c 25 67 b7 bc
       -0.020154145 0.007854906 0.018501317 -0.02238805
0001a0 7b 69 ad bc 63 a8 9f bc 22 ac ca bb e9 d6 a6 3c
       -0.021168461 -0.019489473 -0.0061850706 0.020366149
0001b0 ed 34 b1 bc 43 5e af bc e7 c1 07 bc 0d e1 d8 3c
       -0.021631682 -0.021407252 -0.008285976 0.0264745
0001c0 bc 3d ab bb 7a 72 e1 bb 0f 2a 4c 3b 44 77 6e bc
       -0.005225865 -0.0068801017 0.0031152999 -0.014554802
0001d0 47 45 ff bb a5 f2 51 3c de e0 c8 3c 59 25 3b bc
       -0.007790241 0.012814199 0.024521288 -0.011422479
0001e0 9e 30 97 3c ad f9 93 3c 2b 37 ec bb 0b 2f 8a 3c
       0.0184558 0.01806339 -0.007208725 0.016868135
0001f0 a1 4d ed 3b b2 41 04 3c ba 97 c9 bc a5 1f d9 bb
       0.00724192 0.008072304 -0.024608482 -0.006626087
000200 69 a1 ae bb b8 7c b3 bc 08 97 09 bc f3 54 b7 3c
       -0.0053293 -0.021910056 -0.008397825 0.022379374
000210 65 86 37 bc 11 1e 95 bb 38 72 1c bc 95 7b cc 3c
       -0.011201476 -0.0045507033 -0.009548716 0.024961272
000220 cc e2 80 bc bf a8 db 3b fb ce 30 bb 07 8b e0 bb
       -0.015733145 0.0067034657 -0.0026978839 -0.006852511
000230 5d 58 5f bc fc ef 62 3c 20 f6 a1 bb d7 af 92 3c
       -0.013631907 0.013851162 -0.0049426705 0.017906113
000240 77 a1 91 3c ff 6f 8d 3c b1 b7 9c bc 06 dd 9d 3c
       0.017777188 0.017265318 -0.01913056 0.019270431
000250 11 28 d3 3c 6d d1 bc ba a6 6c a8 bb cc ac 8e bc
       0.025775941 -0.0014405675 -0.005139905 -0.01741638
000260 5f be 96 3c 03 08 3a bc 4d 6f 85 3c 48 9e 16 ba
       0.018401323 -0.011354449 0.016288424 -0.00057456316
000270 e5 0d e0 bb f2 e4 f8 bb 0d f8 90 bb 8b 82 72 3c
       -0.006837594 -0.007595652 -0.004424101 0.014801632
000280 af 53 be 3c e3 c2 f7 3b 4c 0d e5 bb 9d a3 17 bc
       0.023233263 0.007561074 -0.0069901105 -0.009255317
000290 c1 de 86 3a 45 2f b8 3a ef ba 2f bb 91 1b 2a bc
       0.0010289775 0.0014052173 -0.0026814302 -0.010382549
0002a0 ef 3d 20 b9 52 c9 ad 3a 2a 06 97 3b d6 79 a5 3c
       -0.00015281861 0.0013258851 0.004608889 0.020199697
0002b0 2e fa 9e bc 13 5f 2d bc 02 1f 10 3c a2 a3 9c 3c
       -0.019406404 -0.0105817495 0.008796455 0.019120995
0002c0 ce e0 76 3c ce 4d 0f bc 6a 7d 37 3a af e5 37 3c
       0.015068246 -0.008746577 0.0006999584 0.011224194
0002d0 f9 fb d6 bb 28 ad b4 bb ce 23 cd 3c 72 fa 86 bc
       -0.006560799 -0.005513806 0.025041487 -0.016476844
0002e0 f4 42 90 ba 6a 7f 7a bc dc 4a ec 3b 98 95 54 3c
       -0.0011006282 -0.015289167 0.0072110724 0.012975119
0002f0 f6 f3 83 3c 8d e0 10 bc 53 a9 66 3a e6 ce 94 bb
       0.01610754 -0.0088426 0.0008799035 -0.004541266
000300 21 fc 43 3c 65 78 30 3c 11 1a 23 3c 17 e6 6b 3c
       0.011961968 0.010770892 0.009954945 0.014398119
000310 85 71 04 bc 2f be 84 bb d7 70 d9 bb df bb 12 bb
       -0.008083706 -0.004050992 -0.006635766 -0.0022389812
000320 75 1d 37 3c 2b ea be bc 9a 67 44 bc 50 5a 36 bc
       0.011176457 -0.02330502 -0.011987591 -0.011129931
000330 5a c9 2a bc 76 10 4b 3c e8 cc c2 3c ec 14 47 bc
       -0.0104239825 0.012394061 0.023779348 -0.012150984
000340 02 87 b0 bc c3 2a b5 3a fa 85 cd bc e9 0c cc bc
       -0.021548752 0.0013821948 -0.025088299 -0.0249085
000350 d9 7d 7e bc 61 1f f8 3b fc c5 8a bc 3c d5 e8 3b
       -0.015532934 0.0075721 -0.01694011 0.0071054976
000360 05 9b 2d 3c e1 b7 02 bc 20 8d 11 bc 29 dd ee bb
       0.010596042 -0.00797841 -0.0088837445 -0.007289548
000370 cc ae 79 bc 57 9e 94 3c c1 7a 82 bb 41 15 2b 3c
       -0.015239429 0.018141909 -0.0039819186 0.010442079
000380 d3 38 48 bc c6 36 be 3c 07 5b d7 bb 1e f7 80 3c
       -0.012220579 0.023219477 -0.0065721306 0.015742835
000390 05 fb c7 b9 36 78 14 3c cd c7 76 bb 40 4e 4c 3c
       -0.00038143262 0.009061864 -0.0037655712 0.012469828
0003a0 c0 60 2a 3c 50 5b 4d bc 05 30 91 3c ad c6 89 bc
       0.010399044 -0.012533978 0.017723093 -0.016818369
0003b0 ed 9f 98 bb 8d 52 9b bc 85 23 54 3c a2 3c af bc
       -0.0046577365 -0.018960262 0.012947922 -0.021391217
0003c0 ca dd a6 3c 86 be 61 3c cf b2 9d 3c ed 37 27 bb
       0.02036943 0.0137783345 0.019250302 -0.0025515512
0003d0 2c e4 ac bc 06 65 82 39 c7 8a 90 3c d9 19 10 bc
       -0.021104895 0.000248708 0.0176443 -0.008795225
0003e0 37 7c bf 3c 83 55 89 bc 76 d6 0e 3c e5 53 51 3c
       0.02337466 -0.016764408 0.008718124 0.01277635
0003f0 29 96 35 3c 3f 28 e7 bb 18 9f 21 3c 01 69 a6 ba
       0.011083164 -0.0070543583 0.009864591 -0.0012696089

fc.0.bias f4 [64]
000000 23 77 69 3c d0 71 d0 bc 7a ad 82 3c e5 86 b5 bc
       0.014249596 -0.025444895 0.01595186 -0.02215905
000010 9a 50 dd 3c d1 89 1c 3c a0 27 50 bb 2d 7a 34 3c
       0.027015973 0.009554342 -0.00317619 0.011015457
000020 8f e9 84 bb 72 e3 0c 3b dc 1f aa bc ef c3 c3 bb
       -0.0040561627 0.0021497873 -0.020767145 -0.005974285
000030 ee a7 cf bb d1 a9 2b 3c c6 d4 12 3c 47 84 7f bc
       -0.0063371575 0.010477499 0.008961862 -0.015595502
000040 ff 5f 41 3c 2c a6 33 bc c7 77 5f bb 8b bd 00 3c
       0.011802672 -0.010964911 -0.0034098492 0.007857691
000050 62 74 99 bc cb 22 c2 bb b5 76 b4 bb 77 e5 15 3c
       -0.018732253 -0.005924558 -0.005507315 0.009148947
000060 3c f4 68 3b 54 a5 81 3c 9e 86 b7 3b c9 9f 3e 3b
       0.0035545966 0.015825905 0.0056007644 0.0029086939
000070 27 5f 0a bc 8c 0a a2 bb cf 62 d3 3c fa 29 cc 3b
       -0.008445538 -0.004945105 0.025803952 0.00623059
000080 8c d5 10 3c 9a 8c a0 bc ce c6 91 bc 7c ef 89 3c
       0.008839976 -0.019598294 -0.017794993 0.016837828
000090 21 2a 3c 3c ea 9a 3b 3c 0c 5c 50 bc bc 76 80 bb
       0.011484654 0.011450509 -0.012717258 -0.0039204042
0000a0 23 b3 88 bc 01 49 8a bc fe f0 04 3c 6d 29 4b bc
       -0.016686982 -0.016880514 0.008114098 -0.012400013
0000b0 83 35 a5 bc 27 69 3f bb 6b ac a2 bb a2 d2 a0 bc
       -0.020167118 -0.0029206963 -0.0049644015 -0.019631688
0000c0 f8 bd d6 bb d3 c5 4a 3c 69 5b 98 bb c3 b0 94 3a
       -0.0065534078 0.0123762665 -0.004649569 0.0011344183
0000d0 e8 c7 8e 3c 14 0f 93 bc 07 a2 43 bc 68 c3 2a bc
       0.017429307 -0.017951526 -0.011940486 -0.010422565
0000e0 39 58 6c 3c fe eb c4 bc d6 83 c3 bb b6 32 3c bb
       0.014425331 -0.024038311 -0.005966644 -0.002871675
0000f0 b7 35 f1 bb f0 77 5a bc 11 0c 94 3b 06 d5 88 3a
       -0.0073611396 -0.013334259 0.00451804 0.0010439462

fc.2.weight f4 [9, 64]
000000 db 08 00 be 18 e6 5d 3c b7 9a 48 bd 7c 5f 6c bc
       -0.12503378 0.013543628 -0.048975673 -0.014427062
000010 9e ec 69 bc ef 1f 96 ba 7d 42 02 bd f7 a9 f1 3d
       -0.014277605 -0.0011453609 -0.03180169 0.11799996
000020 d2 65 cb 3d 53 a2 d2 bc a9 5c 98 3c 23 6e a0 bd
       0.0993153 -0.025712168 0.018598871 -0.07833507
000030 5c 57 e7 bd 0c 78 9c 3d 90 bc 7a bd cc d5 5c bd
       -0.11295959 0.076400846 -0.061214983 -0.05391483
000040 7d ba d2 3d 5a 90 e1 ba 26 d4 66 3d 60 ba 42 3d
       0.10289476 -0.0017209158 0.056354664 0.047541022
000050 1c ca a2 bc 61 7d ef 3c c0 cd c8 bd 4c 2a 9d 3d
       -0.019871764 0.02923459 -0.09804869 0.07674083
000060 26 30 6a bd 44 47 1c bd 1f 45 0a be dc d2 a5 3d
       -0.057174824 -0.0381539 -0.1350293 0.08096859
000070 a0 76 8d 3d 9d ec 15 bd de 50 9b 3d bf c0 c7 3d
       0.069073915 -0.036602605 0.075837836 0.0975356
000080 c6 83 09 bd 16 61 bd 3d 68 c3 af bd 40 b7 f9 3d
       -0.033572935 0.09247033 -0.08582193 0.12193155
000090 f1 09 53 bc 9f 8b 7b 3d 28 89 1c 3d b6 ea 8c bd
       -0.012880788 0.06141245 0.03821674 -0.06880705
0000a0 5f ba 7d bb c7 4a ef bb 2a 88 40 3d d1 ed 41 bd
       -0.0038715822 -0.0073026153 0.047004856 -0.04734594
0000b0 74 f2 1d bd 36 93 99 3d 62 84 13 bd 00 71 a1 bd
       -0.0385613 0.074987814 -0.036014922 -0.07882881
0000c0 98 1e dd 3d 14 10 58 bd f0 3f 9e 3d f3 d8 1a bd
       0.10796851 -0.05274971 0.07727039 -0.037804555
0000d0 c8 97 df bd f5 0d 9a bd 59 04 dd 3d 62 50 95 3c
       -0.10917622 -0.07522193 0.10791845 0.018226806
0000e0 fa 8a 04 3c 61 f3 ff bb 60 24 ff 3d 9e f6 92 bb
       0.008089775 -0.0078109954 0.1245811 -0.0044849655
0000f0 13 6c f1 3a 5f 73 2a bd 1c 2d ff 3d c1 59 d2 3c
       0.001841905 -0.041613933 0.12459776 0.025677564
000100 14 d8 b0 bc 1c 07 00 3d 84 f4 f2 bc 59 29 b9 3d
       -0.02158741 0.03125678 -0.02965761 0.090410896
000110 5c 15 3f bd c4 fc c6 3d ec cc 7b bd 70 0d 98 3d
       -0.04665123 0.0971618 -0.061474726 0.07424438
000120 a3 57 fc bd 56 e5 2a 3d 5a c1 97 3c d4 62 d5 3c
       -0.12321403 0.041722618 0.018524814 0.026048101
000130 a8 9f 01 3d 0c 64 87 bc d4 56 d1 3d 60 2b 87 bd
       0.0316464 -0.016527198 0.10221639 -0.0660007
000140 c0 56 f5 3d c8 a3 18 bd 63 9b 9b 3d 20 b9 a2 3d
       0.11979437 -0.03726557 0.07597997 0.07945466
000150 08 88 e7 3b fa be ee 3b 4c 6a dd bd b5 7d 82 3c
       0.0070657767 0.00728595 -0.1081129 0.015929082
000160 a4 36 ff bb d7 f6 db 3d 7b 24 ee bd 1d 1f 06 3e
       -0.007788496 0.1074044 -0.11628052 0.13097806
000170 38 06 19 bd 88 3b 14 3d 43 c8 56 bd d6 09 8d 3d
       -0.037359446 0.036189586 -0.05243708 0.06886642
000180 74 ec 8c bd 0f 15 b8 bd 25 da cf 3d 92 16 eb bd
       -0.06881037 -0.089883916 0.1014903 -0.11478914
000190 c3 97 27 bd bd 94 f4 bc 90 cf 61 3c 44 3b ad 3d
       -0.040916216 -0.02985608 0.013782397 0.0845857
0001a0 f2 60 89 3d 2e fe c6 3d a7 21 e7 3c fb 2d 04 3e
       0.06707944 0.0971645 0.028214289 0.12908165
0001b0 80 0a 51 3d 62 8e a9 3d 85 6e 00 3d d6 63 c5 bd
       0.051035404 0.082791105 0.0313554 -0.09638183
0001c0 34 97 f9 3c 6c 94 9b bd d3 4b 5b bd 85 4a 23 bc
       0.030467607 -0.075966686 -0.05353911 -0.009966497
0001d0 bc 0c 3b 3d ba 90 be bd ef 8a 13 3c 6f 68 c9 3d
       0.04566644 -0.09304948 0.009005292 0.09834372
0001e0 e5 6f 69 3b 80 76 65 bc d9 c1 e6 3a 47 b0 f6 3d
       0.0035619673 -0.014005303 0.0017605379 0.12045341
0001f0 1a 6d 87 3d 19 eb 7c bd e4 37 1a 3d c2 b9 ed bd
       0.06612606 -0.061747644 0.037650958 -0.11607696
000200 ad 4c d7 bd 5b 37 a8 3d d5 90 c3 bd d0 b3 c9 3d
       -0.105126716 0.08213683 -0.09549109 0.0984875
000210 1a 8b a4 bd c6 ad c6 3d 74 3b f5 3b 65 57 5b 3d
       -0.08034344 0.097011134 0.007483894 0.053550143
000220 a3 e6 ff bd 5c a2 3a bd 38 80 b2 3d 17 70 f4 3d
       -0.12495162 -0.045564994 0.08715862 0.11935442
000230 e9 13 61 3b fd c1 a4 bd 08 ed be bd 68 93 fb bd
       0.0034344143 -0.08044813 -0.09322554 -0.12283975
000240 3e a0 f6 bd 0d 3c 92 38 6f d5 15 3d 76 a6 f4 3d
       -0.120422825 6.973008e-05 0.0365805 0.119458124
000250 f3 d1 98 bd e6 9e 86 bd 62 11 49 3d 5d d9 0f 3d
       -0.0746192 -0.06573276 0.049088843 0.035119403
000260 4e 0a e7 3c 0d 04 7e 3d 69 ee 0c 3d b9 f3 7a bc
       0.028203156 0.062015582 0.034407053 -0.015316897
000270 9c 3d a1 bd 31 2b 67 3c e6 d8 c7 3c ca 71 b1 3d
       -0.07873079 0.014109419 0.024395417 0.08664282
000280 39 e2 e0 bc 67 ef 06 bd 8c a6 a0 bd f0 2e db 3c
       -0.027451621 -0.032943156 -0.07844266 0.02675578
000290 2d a3 ae bd 08 d5 b2 3c 68 39 af bd 5b 69 2e bd
       -0.08527217 0.021830097 -0.08555871 -0.042580944
0002a0 a4 33 93 bd 96 3b 79 3d 3c 45 ae bd 65 2d 19 bb
       -0.07187584 0.06084784 -0.08509299 -0.0023373005
0002b0 fb 49 ca bc b1 8a dd 3d 95 25 c7 3d b0 43 4f bc
       -0.02469348 0.10817469 0.09723965 -0.012650415
0002c0 d1 81 ac 3c b2 a3 89 3c 2d e2 60 3d 60 dc e2 3d
       0.021057995 0.016801689 0.054903198 0.110771894
0002d0 f6 76 fd bd 9c 01 f9 3c 45 0c ca 3d d8 32 c6 3d
       -0.123762056 0.030396275 0.098656215 0.096776664
0002e0 26 63 5c 3d 90 23 1d 3c 12 bc 26 bd e4 19 5c 3d
       0.053805493 0.009590998 -0.0407067 0.05373563
0002f0 83 96 2a bd 4b 79 83 bd a0 a0 b2 3d 7f e1 4b bc
       -0.041647445 -0.06419619 0.08722043 -0.012443899
000300 f5 34 8a bc 09 ee 86 bd e0 98 57 bd 1d 9b b9 3c
       -0.016870955 -0.0658837 -0.052636027 0.022656972
000310 a9 54 cd bd 2d 4e ba bd b7 fb 96 bc 80 ed 7d bd
       -0.10025913 -0.09096942 -0.018430574 -0.061994076
000320 b6 c9 e1 bc 9e c4 a1 bd 24 96 91 3d 87 94 1b bd
       -0.027562004 -0.0789883 0.07108715 -0.037983444
000330 de c7 95 3a 86 ab 42 3d 00 8b 77 3c 66 0b b5 bd
       0.0011427363 0.04752686 0.015108824 -0.08840065
000340 7a c5 cc 3c 62 ea 56 bb 96 6a a0 bd 30 59 74 3d
       0.024996508 -0.0032793512 -0.0783283 0.05965537
000350 5f 75 b6 bd 85 59 85 bd 48 68 e7 3d c5 6f f6 3d
       -0.089091055 -0.06511215 0.11299187 0.12033037
000360 2a 18 9b bd 23 ce 40 bd 54 d3 85 bc 33 9a 22 ba
       -0.07572968 -0.047071587 -0.01633612 -0.0006202787
000370 03 0f 9f 3d 45 dd ed 3d c0 32 3d bd 4c 72 9e bd
       0.07766535 0.116144694 -0.046190977 -0.07736644
000380 80 b1 50 bc a9 2d 88 3c 35 9c c2 bd b2 48 fc bd
       -0.012737632 0.016623335 -0.095024504 -0.12318553
000390 f1 ea ea 3d 47 6c fe bd 38 14 68 3d 79 05 94 bc
       0.11470593 -0.12422996 0.056659907 -0.018069016
0003a0 7e d0 e8 3d 54 60 ce bd 3f b2 4a bc b9 84 b3 bd
       0.11367892 -0.10076967 -0.012371599 -0.08765549
0003b0 86 c7 ea bc f7 22 2f 3d 68 d4 da bd 40 dc fc bb
       -0.028659593 0.042757954 -0.106850445 -0.0077166855
0003c0 6c 1e f2 3d 81 05 48 3d 44 8f e7 3d 36 31 c9 3d
       0.11822209 0.048833374 0.113066226 0.09823839
0003d0 a2 90 95 3d e5 ec c0 3b 9e 3a 1d 3d 7a 2d 28 bd
       0.07302977 0.005887615 0.03838598 -0.041058995
0003e0 22 fe e4 3d d8 0d 5d 3d fc 30 5b bd b7 e4 55 3d
       0.111812845 0.05396828 -0.053513512 0.052220073
0003f0 fa 60 a0 bd 32 45 fc 3b d4 33 8d 3d 26 cc 73 bc
       -0.07830997 0.0076986784 0.06894651 -0.014880216

fc.2.bias f4 [9]
000000 7a 9a ba 3d ba cd 2b bd a5 0e c1 3d c3 97 ab bd
       0.09111495 -0.041944243 0.09426621 -0.083785556
000010 27 98 86 bc a6 74 16 bd 57 21 f2 3d 22 36 5e bd
       -0.016429974 -0.03673234 0.11822765 -0.054250844
000020 08 db dc 3b
       0.0067399777
