log/DeepLabV3_Heuristic_separable_conv_regressor_weights.pt (torch, 185321 bytes, 11 tensors)

depthwise.weight f4 [1, 1, 3]
00000000: 85a6 ab3d ca60 f2be 9985 0f3f
0.083813705 -0.4733947 0.5606323

pointwise.weight f4 [16, 1, 1]
00000000: 9f42 c2be 6335 dfbd 4a60 56bd 2087 723e
00000010: f2c6 2dbe 00f4 783f 13c7 09bf 28de 8ebd
00000020: f316 9b3e 2a3d f13e 8312 b43e dc77 79bf
00000030: 5b8c 563f 11ae f8be bd0a 9a3c 8674 25bf
-0.37941453 -0.108988546 -0.052337922 0.23684359 -0.16970423 0.97247314 -0.5381939 -0.06975967
0.30290946 0.47116977 0.35170373 -0.97448516 0.83807915 -0.48570302 0.018803949 -0.64630926

pointwise.bias f4 [16]
00000000: 9a4a 383e a4f7 3bbe 0c23 04bf 16c0 07bf
00000010: be26 6a3f c649 363e 2369 ac3e 0fd9 e9bd
00000020: 9ccf 90be 22ba 1e3f dbba 27bf 2b3d 37be
00000030: 9647 0e3e 22e2 ddbd d2f7 6dbf 101c 9cbe
0.17997208 -0.18356186 -0.5161598 -0.53027475 0.91465366 0.1780158 0.33673963 -0.11418354
-0.28283393 0.62002766 -0.65519494 -0.17894427 0.13894495 -0.10834147 -0.9295627 -0.3049016

conv2.0.weight f4 [32, 1, 3]
00000000: a598 11be f1a2 993e 6a58 b33e 1778 f8be
00000010: 9105 38be d952 b73e 9344 963d 72ac f9bd
00000020: ffd1 2dbd 3d6f 6c3e 62b1 493e 2b10 253e
00000030: 245b fdbe b2af c6be 1f22 08bf 618a 353e
00000040: 2401 5bbe 0c6a c73d 06d7 ebbc 4f7b 003f
00000050: 56a7 c53e 5f43 ea3e 1a83 4c3e 4e2b d13d
00000060: 10eb e4be 4989 0bbe 9a8f 90bc 79ba 00bf
00000070: 0925 523e 9085 0ebf 0555 6c3d 0d4c afbd
00000080: 4128 ae3e 7147 6cbd 2055 39bd 66fa a73e
00000090: 2fb0 95be 980e 3dbe fccd 8dbe b1c8 b33b
000000a0: 0d1c aabe 8cef ea3c b07d f3bc 7604 c63e
000000b0: 9e24 fc3e 4cf3 cbbe 1671 d33d dae4 963e
000000c0: 1aa5 cebe 8487 4c3e 7278 d33e e39e f03e
000000d0: cb3b ee3e 42d9 b63e 4226 d6be 2bb4 02be
000000e0: 22b6 11bf 3d68 d6be 5038 cd3e 6cfe 303d
000000f0: af71 a23e 2a0a c8be b77a f43e 4f94 b53e
00000100: 26af ed3e 033a c73c f37a fe3d 1111 28be
00000110: f24d 1cbe 1d60 f63e bf00 d5bc 139e 32bc
00000120: 5b03 af3e 2f33 ba3d 7c7f 073f 2ed2 44bd
00000130: cba0 ddbb 26aa 0f3f f4bb 033e 3eae afbe
00000140: 3612 98be 9957 a1be eb47 933e cc07 9b3e
00000150: dc5f e53e 8618 133e d6e8 9b3e e9cd a23e
00000160: 7941 083f c3f3 0bbf 314c d83e 7bbc 72be
00000170: 0b14 173e fd46 023f 7d74 e3be ad16 4e3d
-0.14218386 0.30007127 0.35028392 -0.4852912 -0.17970873 0.35805395 0.07337298 -0.121910945
-0.042436596 0.23089309 0.19696572 0.16119449 -0.49483597 -0.3880592 -0.53177065 0.17728569
-0.21387154 0.09737024 -0.028789055 0.50188154 0.3860423 0.45754525 0.19971886 0.10213338
-0.44710588 -0.13626589 -0.0176466 -0.50284535 0.2052194 -0.5567255 0.05769827 -0.085594274
0.34015086 -0.05768532 -0.045247197 0.32808226 -0.2923598 -0.18462598 -0.27696216 0.0054865708
-0.33224526 0.028678678 -0.029723018 0.38675278 0.49246687 -0.39834058 0.10324304 0.29471475
-0.40360337 0.1997357 0.4130283 0.4699622 0.46529993 0.3571263 -0.41826063 -0.12764041
-0.5691854 -0.41876402 0.40082026 0.043211386 0.3172736 -0.39070255 0.47749874 0.35464713
0.4642269 0.024319654 0.124257945 -0.1641276 -0.15264109 0.48120204 -0.026001332 -0.010901946
0.34182248 0.09091794 0.529289 -0.048052005 -0.006763553 0.56119 0.12864667 -0.34312624
-0.29701394 -0.31512144 0.28765807 0.30279386 0.44799697 0.14364824 0.30451077 0.31797722
0.53224903 -0.54668826 0.4224563 -0.23704712 0.1475374 0.5088957 -0.4442481 0.050314594

conv2.0.bias f4 [32]
00000000: 140c 793d 2484 96be b1b7 653e 4094 0c3f
00000010: 06d2 d0bc 04e5 e9be 0ec3 913e 591f 383e
00000020: 0937 08bf 9887 e13e 6e47 b23e b64b 113b
00000030: 86e8 dd3e 7480 cbbe 31cd 00bf 81fb b5bd
00000040: 746b 07bf bab8 babe 8175 0c3f eb47 1b3e
00000050: bf84 0f3f b1ec 9bbe 3ec9 053f 47c1 55bd
00000060: 189c cc3e 0f74 0abf ee93 59be 5bf3 27be
00000070: 3190 b3be 482a 01bf 9c05 39bd cd5c a3be
0.060802534 -0.2939769 0.22433354 0.5491371 -0.025490772 -0.45682538 0.28469127 0.17980708
-0.53208977 0.44048762 0.34820122 0.0022170371 0.43341464 -0.3974644 -0.503131 -0.08885861
-0.52898335 -0.3646906 0.54866797 0.15164153 0.5606193 -0.3045402 0.52260196 -0.052186277
0.3996284 -0.5408334 -0.21247837 -0.16401426 -0.35070947 -0.5045514 -0.045171365 -0.3190674

conv2.1.weight f4 [32, 32, 1]
00000000: 57d4 aebd 7c90 f53d 3639 0c3e 9977 a1bd
00000010: a1b9 c0bd 4914 fcbd ee49 5cbb 6695 07be
00000020: 86a0 c1bd 9278 30bc 337a 04be 629d 963d
00000030: 8273 b93d 68b9 1abe 1d6d 1cbe 12d4 cbbd
00000040: 258f c9bd fa9c 233d a648 1f3e 9ec6 223e
00000050: 5a9b d3bd 8274 b53b 5107 d53d b242 e43d
00000060: d8d3 123c 3813 2eba a6a9 79bd 36f3 afbd
00000070: a1c3 033e 3945 cb3d d6d1 123e 82a0 25be
00000080: cbd7 323e 9167 0e3e 1823 cc3c 1c15 203e
00000090: f65b fdbb 5ff3 2e3e 7cdd 4d3c 8215 8c3d
000000a0: 93fb cc3d 877e a8bd 698d babc 3c7c 1e3e
000000b0: 9e6e bdbd 2baf c03d 9c8b 0fbd a7b6 2c3e
000000c0: 3562 9cbd 034a 2d3e 9ff4 d63d c8ce 43bd
000000d0: b061 983d 2b1c 94bd ace9 0ebe 4ef8 dcbd
000000e0: 7912 a9bd b761 233e aa7c 3fbd f7f1 cebd
000000f0: 0b13 b53d 85a5 ed3d e831 02be a0a7 6ebd
00000100: 11d6 173e 6c23 18bd ccfe 91bd 825e 50bc
00000110: 5552 bebd c70a d7bd d3b1 1cbe 7230 153e
00000120: b8fa 2d3e 5df8 fa3d e741 7cbc 5126 2fbe
00000130: 7eb5 2e3e 0707 11be 459a 143e bfe9 27be
00000140: e1eb 90bc 0cfd 91bd a70a fdbd 4a14 c3bb
00000150: 4f60 b73d fc2e 153d 6178 e63d 5972 8cbb
00000160: d122 2abe 25eb 063e a573 0a3e e317 203e
00000170: 1980 cdbd 4c49 a1bd 46a8 cb3d 4832 c63c
00000180: 0a0f 353e c566 0b3e 9afa dfba 388d bcbc
00000190: 91b8 21be 44d4 0e3d 793b 0ebd 9d71 023d
000001a0: d159 d7bd e898 ecbd 8e8c 4abd 69c2 10bd
000001b0: 479c f8bc 5011 1a3e da72 38bb 7ab0 e8bd
000001c0: 56bc 56bc b483 0c3e 49a1 26be e02f 2dbe
000001d0: bfc7 073d b0a3 783d 251f babd 73ef 27be
000001e0: 72a5 9bbc 29a7 043e 331a 96bd 3866 a63d
000001f0: 9a45 cd3d 8545 fabd 0749 643d 5433 05bd
00000200: 006d 31bd 4eff ddbc 214f 84bd 0024 84bd
00000210: ac33 22be 67e6 4cbd 36b2 fd3c bc6a 023e
00000220: 1cf9 28be bed8 bdbd 6225 20be 2ae0 83bd
00000230: c7b1 f73d 1a1d 0fbe 7363 273d d89f 25be
00000240: e216 333e 5191 e53d efae 0bbe aade eabd
00000250: 8bf3 0f3e 4db3 9abd a1bb 9b3d 47b0 62bd
00000260: 9093 e4bd 21d9 31bd 6db8 c23d 3b0a 19be
00000270: 04b8 ab3d 339d 673d 27e2 083e ee65 cf3d
00000280: b7e6 25be 08ed 433d 9f5f a63d 05a7 05be
00000290: 489d 4e3c 9e06 6ebd 5f03 bf3d 4638 8abc
000002a0: 4b89 81bd 0c9d 31be 9a74 033c 6f61 e23d
000002b0: 9abd 363d 98a2 1e3e d718 753d c33c 193c
000002c0: e9db a5bd 3922 163c 72d7 5f3d aac6 ff3d
000002d0: 2f49 32be 8d74 b73d f6b2 12be bacf 8dbb
000002e0: e143 2a3d 73d9 4a3d 5f35 6f3d 5cb7 a53d
000002f0: 9f14 da3c 489a 8ebc 0301 c0bc a181 33be
00000300: e780 263e 4bba fabd ae66 ba3d bbd8 93bd
00000310: 701e 553d 0d5c cbbd 40c2 e03d 9536 5abc
00000320: 3f15 a43d 9c1a e23d f40e 753d d70a 80bd
00000330: d105 1b3e 6a1a 253e a41f 043e 38a0 82bd
00000340: adea 1b3c 14d9 4fbc 07ea 943d a4a8 0fbe
00000350: ea27 203e bc2c 05be c116 1cbe d8b8 b93d
00000360: ee03 29be c7b1 233e 5c8d 093e 9fca 003d
00000370: a98c cc3c e7b4 58bd 13fe 8fbd 034d ebbc
00000380: 976e ee3c 7f68 16be bd8f 88bd 7004 cc3d
00000390: 99aa b9bd e5f8 1e3e 52ec 3cbd ad15 58bd
000003a0: 638a 123e feef cdbd c7f0 2a3e ede6 0d3e
000003b0: 6f75 513d 7310 d5bd b556 f9bd 6039 eabd
000003c0: 0518 2bbb e363 0c3e 22e8 d2bd 7e93 efbd
000003d0: 1159 12be bd21 eebd 2d5c b0bd 0880 e6bd
000003e0: 0a00 00be 100f 50ba 0f39 f5bc 48ee d53d
000003f0: a78e 08be 7ddc f33d 89b2 e43d f091 4b3d
-0.08536594 0.11990449 0.13693699 -0.078841396 -0.09410406 -0.123085566 -0.0033613401 -0.13240585
-0.094544455 -0.010770934 -0.1293724 0.07354237 0.090552345 -0.1510979 -0.15275998 -0.099525586
-0.09841756 0.039944626 0.15555057 0.15896079 -0.10332365 0.0055375705 0.10401786 0.111455336
0.00896164 -0.0006640437 -0.060952805 -0.08591311 0.12867595 0.099253125 0.14337859 -0.1617451
0.17465131 0.13906695 0.024919078 0.15633053 -0.00773191 0.17085026 0.012565013 0.0684004
0.100089215 -0.08227258 -0.022772508 0.15477079 -0.09249614 0.09408411 -0.03504525 0.16866551
-0.07635919 0.16922764 0.104958765 -0.047804624 0.074405074 -0.07231935 -0.13956326 -0.10789548
-0.082554765 0.15955244 -0.04674975 -0.10104745 0.08841523 0.11603836 -0.1271435 -0.05826533
0.14827754 -0.037143156 -0.07128677 -0.012717845 -0.09293047 -0.105001025 -0.1530221 0.14569262
0.16990173 0.12254403 -0.015396572 -0.1710446 0.17061421 -0.14162837 0.14511974 -0.16397761
-0.0176906 -0.07128343 -0.123555474 -0.0059533464 0.08953916 0.03642176 0.11253429 -0.0042860922
-0.16614844 0.13175638 0.13520677 0.15634112 -0.10034198 -0.078753084 0.09944205 0.024193898
0.17681518 0.13613422 -0.0017088235 -0.023016557 -0.15793063 0.0348704 -0.034724686 0.03184663
-0.10515178 -0.11552602 -0.04945045 -0.035341654 -0.030347956 0.15045667 -0.0028144629 -0.11361785
-0.013106426 0.13722116 -0.16272463 -0.16912794 0.033149477 0.06070298 -0.090879716 -0.16399936
-0.018999789 0.12954392 -0.07329216 0.081249654 0.10023041 -0.12220291 0.055733707 -0.032519653
-0.04331684 -0.027099278 -0.06460405 -0.06452179 -0.15840024 -0.050024416 0.030968767 0.12736028
-0.16501278 -0.09269856 -0.1563926 -0.0643924 0.12094455 -0.13975945 0.040866327 -0.16174257
0.17489198 0.112093575 -0.1364095 -0.11468251 0.14057748 -0.0755373 0.07604147 -0.055343892
-0.11160958 -0.04341996 0.09507833 -0.14945309 0.083847076 0.0565464 0.1336752 0.101268634
-0.16201292 0.047833472 0.08123707 -0.13051994 0.012610741 -0.05811178 0.09326815 -0.016872536
-0.06325015 -0.17345065 0.008023405 0.1105374 0.044614412 0.15491712 0.059838142 0.009352866
-0.08098585 0.009163433 0.054648824 0.12489064 -0.1741073 0.08957777 -0.1432608 -0.0043277415
0.04156864 0.049523782 0.058400508 0.08091614 0.026621161 -0.017407551 -0.023437982 -0.17529918
0.1626011 -0.12242564 0.09101616 -0.072190724 0.05203098 -0.09929667 0.1097455 -0.013318677
0.08011865 0.110402316 0.059828714 -0.062520675 0.15138938 0.16123357 0.12902695 -0.063782156
0.0095164 -0.012686033 0.072712 -0.14029175 0.15640226 -0.13005346 -0.15243055 0.09068459
-0.16505405 0.15985785 0.1343283 0.031443235 0.024969416 -0.052906897 -0.07030883 -0.028723245
0.029105468 -0.146883 -0.06668041 0.09961784 -0.09065742 0.15524633 -0.04612381 -0.052755047
0.14310603 -0.100555405 0.16693412 0.13857622 0.051137384 -0.10403528 -0.12174741 -0.11436725
-0.0026106846 0.13709979 -0.10298182 -0.11698054 -0.14291789 -0.11627529 -0.08611331 -0.11254889
-0.12500015 -0.0007936815 -0.029934434 0.10445839 -0.13335668 0.11907289 0.111668654 0.049699724

conv2.1.bias f4 [32]
00000000: a080 063d fd71 58bd c988 ed3d e38a f6bd
00000010: 42e0 073e 4b99 1f3e e403 c1bd a7d6 f3bd
00000020: c1b8 e13d 5cde 973d bdaa 213e 4387 b83d
00000030: 5685 383e 0b73 b33d 349c 9ebd bc06 823d
00000040: ef08 e9bd da5c 22be 6ded d23d bf83 19be
00000050: e7c3 ab3d a9a2 9a3d 573e 5cbc f5c8 183e
00000060: c41d e53c 613f de3d 89ce 18be c8f0 5b3d
00000070: 4c84 3ebd d382 1e3d c945 a9bc 2f6c 21be
0.03283751 -0.052843083 0.11598355 -0.12038209 0.13269141 0.1558582 -0.0942457 -0.11906176
0.11021567 0.074154586 0.15787788 0.09010174 0.18019614 0.08762177 -0.07744637 0.06348941
-0.11378657 -0.15855733 0.102991916 -0.14991663 0.08386975 0.07550556 -0.013442597 0.14920409
0.027968295 0.10851932 -0.14922537 0.053696424 -0.046512887 0.038698982 -0.020663159 -0.15763925

fc.0.weight f4 [64, 672]
00000000: 2c59 dabc 0ae9 7fbc c368 70bc 4333 38bc
00000010: 06f6 f2bc ac06 1d3d 4f5d 2dbc 602e 3c3c
00000020: 22e6 ccbc 454c d2bc 042b a6bc e6ae 7e3c
00000030: 0e0a 113c 92c4 abbc 7494 edbc f388 16bd
00000040: 5344 3c3c 2dd9 263c 738d 793c a8f0 9fbc
00000050: 437d acbc 8d33 48ba 8fa0 7bbc 2ce1 00bd
00000060: 597c b2bc 028d 773c 7db2 1d3d ce9a 073c
00000070: 07cc 393c 39b7 983a 597c d5bc 0edc e83c
00000080: 6ee3 1cbc 67dd 123b b6ce fe3c 19c3 6fbc
00000090: 7250 f43c dbeb 023d 338f d7b9 9a6d 873c
000000a0: 0ad6 b93b e823 c9bc 946b a8bc a322 c93c
000000b0: 6f36 fd3c 62cb 83bc 75fc c4bc 3a62 75bc
000000c0: 56ad fd3c 9e87 52bc 67dd 073c 7fa1 c33c
000000d0: c62c 14bd 7166 74bc 69f8 0abd 3ddc babc
000000e0: 3d2f 9d3c e869 1cbd b809 1c3d 80f0 7abc
000000f0: 2a85 153c e223 33bb 1d16 a0bc 0dc0 c43c
00000100: e209 06bd 5765 7f3c 3879 ebbc 4804 85bb
00000110: c1b9 a0bc 5e19 d23c cd13 53ba e155 b3bb
00000120: 2804 0e3d 53d7 653c 0b4d 47bc 3b96 193d
00000130: f7cd cfbc 2594 0e3d 0923 993c 2abd 0cbd
00000140: 60c1 3f3b 612d 0cbd 6d11 153d abc2 823c
00000150: 0ba1 603c 85c3 ea3c a4cd b73c 2dd9 afbc
00000160: 50eb f93c 673b 9bbb 0d5c 60bc aaa1 f7bc
00000170: f1e1 163d 2fa4 74bc d487 f63c becb f63c
00000180: 50ab eabc 3589 b7bc 8b53 1dbd 3bd8 14bd
00000190: 6403 2d3c 9d3b 00bd 446a 31ba a543 ef3c
000001a0: 408e cbbc 98c6 74bc 23e6 9ebc 454a 07bd
000001b0: 46ee e73b 3ca8 b5bc d10b 65bc b8f8 f83c
000001c0: cf2a 98b9 1821 fb3c 4a56 eabc 912c 123d
000001d0: 287d 19bc e2f2 a93c d61d f33b ee89 0ebc
000001e0: 5b41 1c3d b462 6bbb f5d0 1d3c 2fcb db3b
000001f0: 1872 06bd 407b 56bc 75dc 3fbc 8359 b5bc
00000200: ff21 8dbc 41be df3c 6de6 953c d345 49bc
00000210: 480e bc3c 530b ae3c 1b47 0d3d 53b2 883c
00000220: 93c0 f43a f426 ffbc f143 b93c f68b acba
00000230: 5bfe 1a3c 82de e6b9 0585 553c d096 aa3c
00000240: 62c5 cbbc a1e3 04bd 61b6 c03c af09 00bd
00000250: 9e71 9d3c 7808 0cbd 4a6d 153c 1077 073c
00000260: a8d4 72bc f191 013d f49d a3bc a971 12bc
00000270: 9a3d d0bc 489b 9dbb 518a 813c b919 0dbd
00000280: 3012 bbbc 54b6 d43c b375 c1bc 1d17 0cbd
00000290: dea1 94bc 3e09 c2bc c75d b3bc 7591 bc3b
000002a0: 74d1 c6bc 60a3 bcbc 01bc f3bc d2ba b43c
000002b0: 3284 12bc a72a d7bc e1fe 45bb 6a4d 823b
000002c0: 1ee7 9f3c f627 bfbb 7565 c23a 652e 90bc
000002d0: b120 68ba ea2e 7dbc 3a40 15bd 4f32 a33c
000002e0: b4e3 0e3d 9ada 9fbc e54d f8bc 4ef6 debc
000002f0: de9b 663c 1be5 833c 93c8 c43b bdae e0ba
00000300: 9d24 3ebb 8aab 093d 17d5 613c c02d a1bc
00000310: debc df3c 9eab dc3c 036b 83bc eeab 6abb
00000320: 3ade e5bc cc32 ddbc 948f 90bb 9521 003d
00000330: b6ee 9eb7 c40f aab9 811c bc3c ddd7 043c
00000340: d4db 15ba 56b3 71bc 91e3 bc3c d676 c0bc
00000350: 4c77 e6bc 5b4a 0cbd 6c2b c73b 9024 82ba
00000360: d6c4 523c 50d4 0fbc a36a 6c3b 6571 e7bc
00000370: 09bb d6bb 7aee 01bd dd39 babc 207b b0bc
00000380: 013e ec3c 8294 d63c 3dae 0dbc 4257 a23b
00000390: 8d2c ac3c 881a 973c 9082 01bd ba0d 51bb
000003a0: dbd0 9a3b 62e8 0bbd f6f1 dabc 23e3 ca3c
000003b0: ace7 233c 4465 7f3c 2dde b3bc 0dbb 1dbd
000003c0: aaab d43c ff74 eabc 29e2 ce3a bbad 8a3c
000003d0: 0699 943b b932 0d3d 4a28 99bb f3ef 23bc
000003e0: 9c1f d9bc 13b2 11bd 50e7 1d3d e4fe 4bbc
000003f0: 871d 6a3c 8d2a 103d ac83 0bba fff2 0bbd
-0.026653849 -0.015619526 -0.014673415 -0.0112426905 -0.029658329 0.03833644 -0.0105813285 0.011485666
-0.02501208 -0.025671134 -0.020284183 0.015544629 0.008852495 -0.020967755 -0.029001452 -0.0367517
0.011490899 0.010183615 0.015231478 -0.019523934 -0.021055823 -0.0007637076 -0.015358104 -0.03146474
-0.02178781 0.0151093025 0.038500298 0.008276654 0.011340148 0.0011651284 -0.02606027 0.028425243
-0.009575708 0.0022409798 0.031104427 -0.014633917 0.029823516 0.03196321 -0.00041114687 0.016531754
0.0056712674 -0.024553254 -0.02055911 0.024552649 0.030909745 -0.016088191 -0.024046162 -0.014977032
0.030966442 -0.0128497165 0.0082925325 0.023880718 -0.03617551 -0.014917002 -0.03392831 -0.022810096
0.019187564 -0.038186938 0.038095206 -0.015316129 0.009125987 -0.002733462 -0.019541794 0.024017358
-0.03272427 0.015588126 -0.028744325 -0.0040593483 -0.019619824 0.025646862 -0.0008051962 -0.005472884
0.034671932 0.014028388 -0.012164365 0.037496787 -0.025366766 0.03480925 0.018693464 -0.03436009
0.0029259548 -0.034222964 0.03639357 0.015961966 0.013710271 0.028657684 0.022436924 -0.021465862
0.030507714 -0.004737306 -0.013693822 -0.030228455 0.03683657 -0.014931723 0.030094065 0.030126449
-0.028646141 -0.022404293 -0.03840975 -0.036339026 0.01055989 -0.03130685 -0.0006767849 0.02920706
-0.024848104 -0.014939927 -0.019396847 -0.033029813 0.007077965 -0.022174947 -0.013979868 0.030392036
-0.00029023594 0.030655429 -0.028605599 0.035687033 -0.0093682185 0.020745698 0.007419328 -0.008699877
0.038148265 -0.0035916986 0.009632339 0.006707571 -0.032823652 -0.0130909085 -0.011710276 -0.02213741
-0.017228125 0.0273124 0.018298352 -0.012284714 0.022956029 0.021245634 0.03449164 0.016686594
0.0018673114 -0.031146504 0.022615405 -0.001316427 0.009460057 -0.000440348 0.013032203 0.020823866
-0.024874393 -0.032443646 0.023524465 -0.031259235 0.019219216 -0.034187764 0.009120295 0.008268133
-0.014821209 0.03163332 -0.019972779 -0.0089382315 -0.025419999 -0.0048097707 0.015813025 -0.03444836
-0.02283582 0.025965847 -0.023615694 -0.03420173 -0.01814359 -0.023686048 -0.021895302 0.0057546445
-0.024269797 -0.023027122 -0.029752733 0.02206174 -0.008942651 -0.026265455 -0.0030211734 0.0039765136
0.019519385 -0.005833621 0.0014831262 -0.017600248 -0.0008854969 -0.01545308 -0.036438204 0.01992145
0.034885123 -0.019513417 -0.03031058 -0.027217057 0.014075248 0.016100457 0.0060053556 -0.001714192
-0.0029013522 0.033610858 0.013783715 -0.019675136 0.027311739 0.026937302 -0.016042238 -0.0035808044
-0.028060067 -0.02700176 -0.004411647 0.031282026 -1.8946226e-05 -0.00032436673 0.02296281 0.008108106
-0.0005716656 -0.01475223 0.02305773 -0.023494165 -0.028133057 -0.0342506 0.0060781743 -0.0009929109
0.012864312 -0.008778647 0.0036074303 -0.028252313 -0.006553058 -0.03172157 -0.02273267 -0.021543086
0.02883816 0.02619386 -0.008647499 0.0049542496 0.021017337 0.018445268 -0.031618655 -0.003189905
0.0047246045 -0.034157164 -0.026726704 0.02476651 0.010003965 0.015588108 -0.021956528 -0.038508464
0.025960762 -0.028620241 0.0015783954 0.016928544 0.0045348434 0.0344722 -0.0046739923 -0.010005939
-0.02650433 -0.035570215 0.038550675 -0.012450907 0.014289266 0.03519683 -0.000532205 -0.034167286

fc.0.bias f4 [64]
00000000: 3b2d f9bc 0392 a93c 23ab 2a3d b09d 05bd
00000010: c402 6e3a 8198 7eb9 bc1c 003d 0d73 e13b
00000020: 7919 60bc a339 7d3c e38e 643c af9a b63c
00000030: 8c7f cfba c8ae e33c 92fb a539 480e 8f3c
00000040: b3d5 43bc b920 ebbc cbae 8e3c 7cbe 19bd
00000050: 3b90 f5bc c3f9 163d fcf5 583c bd0d b43c
00000060: e80b 093d 6e71 40bb a4bf 7cbc 0b23 b13c
00000070: 8515 10bd f297 c6bc 799c 99bc b315 e63b
00000080: efca 833c 0f35 243d 31cd 403c bc97 aebc
00000090: f0bf b3bc 6de6 d43c e4f0 dcbc d1e4 f63a
000000a0: de45 16bd 384c 273d deae d1bb 8d01 cdbc
000000b0: 7587 ac3b 1e56 483b 4b7e bb3c 55df 82bc
000000c0: f398 c6bc 3e18 44bd 03a8 963c 5e18 2a3b
000000d0: c17f 1c3c eca1 8dbc 143c 1bbd a1f2 453c
000000e0: 09d8 f6b9 3ce8 f5bc b980 bfba 6a6d 943c
000000f0: 02d2 553c 8e5a e83b 159a 0d3d 132d 14bd
-0.030417075 0.020699507 0.041667115 -0.032621086 0.00090793916 -0.0002428014 0.031277403 0.00688017
-0.013677948 0.015455636 0.0139500825 0.022290556 -0.0015830859 0.027793303 0.00031658687 0.017462865
-0.011952805 -0.028702127 0.017417332 -0.037535176 -0.029976001 0.036859285 0.013242241 0.021979207
0.03345862 -0.0029364484 -0.01542655 0.021623155 -0.035176773 -0.024242375 -0.01875137 0.0070216297
0.016087977 0.040089663 0.011767671 -0.021312587 -0.021942109 0.025988782 -0.026970334 0.0018836503
-0.036687724 0.040844172 -0.0063990196 -0.025025154 0.005265171 0.0030568908 0.02288737 -0.015975634
-0.024242854 -0.04787468 0.018390661 0.0025954465 0.009551943 -0.017289124 -0.03789909 0.012081773
-0.00047081735 -0.030017965 -0.0014610506 0.018118579 0.013050558 0.007090873 0.034570772 -0.0361758

fc.2.weight f4 [9, 64]
00000000: f860 dabd 5873 dabc e7ed 1fbd 5c2c 7abd
00000010: 1a38 b83d d64b 84bd dbac ddbd cc5a b0bd
00000020: 0f5c 3f3b 3b6a b43d 7e46 d53d c827 8b3d
00000030: a0db 0c3c 7401 133d c317 c1bd ccde f8bd
00000040: 0834 75bd dd98 103d 0b4b 84bb 46aa e53d
00000050: 3c24 fd3d d0f0 c93d 6bbb b6bd 23e6 09be
00000060: a3db b93d 60a5 7fbd 9036 65bd dec4 7b3c
00000070: ebff 96bd fe0a fbbd 4cb0 adbd baa0 e1bd
00000080: 4e5e a03d 68fc 973d 3752 423d 53ca e9bb
00000090: cbc9 d7bd e63a 0cbd cfb3 18bd f050 c6bd
000000a0: 8c43 b2bd 2709 75bc 1ef6 cd3b 1ce4 5ebd
000000b0: 5cc0 8cbb 4c00 cc3d 307b 64bd 88ec 00bd
000000c0: 5820 a2bc 27cf 023d bcf6 853d 72c9 9c3b
000000d0: 651c 153d fcb9 28bd 9c80 35bd 4484 863d
000000e0: c186 6b3d 0700 333b 35ec 28bd 6a53 eabd
000000f0: aee4 863d e6ee cfbd a7dc c43c c004 febd
00000100: fec3 90bd 8092 c43d 5ab7 3bbd 94ba 4fbd
00000110: 45db 1a3d c054 b13d e025 d13d a47c c83d
00000120: 961c 303b eb86 653d a016 2dbc 7cc3 f13d
00000130: d6e7 9dbd 8403 57bd 3465 cebd 407b 03bb
00000140: ece8 22bd 520c 213d d0bd 9e3a 38e4 22bd
00000150: a267 a43d c3c1 8e3d c9e2 b43b d85a 3abd
00000160: 504d cc3d c9b9 a13d d017 7ebc 844a ef3d
00000170: 020f db3b a01b ea3b 4028 b6bd ec61 a7bd
00000180: 01d3 ea3d b49d aebd 3aa1 3e3c 46aa 023e
00000190: 0950 e3bd a3d7 ddbb 6843 c139 84ff 803d
000001a0: f8b8 38bd d317 01be acb5 bb3d 282b dabc
000001b0: a841 b73d 68c0 b23d fabc b5bd e56a 48bc
000001c0: 36bc ecbd 6423 ad3c 27cd 42bc 1147 06bd
000001d0: 7697 873c 8074 0f3b 8418 b7bd fad7 ce3d
000001e0: f3a7 553d 11d4 eabd 6a22 ce3d fb2b 38bb
000001f0: f55d ddbd eff0 97bd 4de1 853d f94f ec3d
00000200: 5650 f43d 1e53 653d f07b a6bd 3ec3 b23d
00000210: 1c59 473d 4096 1b3d 0c27 ebbd 7838 abbc
00000220: 9833 86bd 2edc 3b3d 60b6 d8bb f015 1f3c
00000230: 204d d9bc 7c8b 123d de4d e73d 24fb 3cbd
00000240: 0808 12bd a5c6 05bd ec8a a53d 80e3 f3bb
00000250: c44f 8ebd 515e c5bb 8274 6ebd d817 e5bd
00000260: a666 3dbd ffad c5bb a075 313c aa25 ac3a
00000270: 509c eebd 487d a7bd f02c a03d 8dff 3d3d
00000280: 94a1 88bd 2b91 bfbc 3c25 70bd 9702 a5bd
00000290: ef7f ea3d 0bab 173d 4342 ee3c 30da 683c
000002a0: 5617 e33d 3618 153d 177a afbd 2c92 6b3d
000002b0: f77f df3b 9086 cd3c 8592 27bd 0c59 ffbd
000002c0: 0438 5cbd 0155 123d d408 54bd bff5 f93d
000002d0: 60d4 a83b 5850 923d 208e c0bb e2c5 c33d
000002e0: a98d 153c 3620 98bc 622d 093d 8257 7f3d
000002f0: 39c0 fabd 7ee2 b43d 98d7 fe3c e533 9d3d
00000300: 42fe acbd 64a2 dfbd e54b 27bd aac1 903d
00000310: bdcc 863d 60a9 f93b f71e b43c 2053 8cbd
00000320: d89a a9bd 66a6 5fbd e4d8 a13d 1420 003d
00000330: 4048 fa3d 6c41 b03d 718f f23d bcf7 43bd
00000340: 60e4 22bc da1a 223d ffa3 b53d e0ea ac3c
00000350: 5095 24bd 17be da3c 7603 9f3d 8f78 9d3c
00000360: 1db0 7cbd 24c0 ab3d d0cc 0a3c ad0c 0d3c
00000370: 5a88 0d3d c66a b1bd 289b 8bbc f8a8 513d
00000380: f50d 00bc c096 48bd 0a4b b13d f4f1 b5bd
00000390: 330e 973d 7268 ad3d 89fd 313d 2284 f4bd
000003a0: 84ad 743d 6a85 e33d deec 51bd 661c bdbd
000003b0: e620 c33b bc1d 4b3d c420 cdbc df47 f73d
000003c0: d068 e93c 11af d53d 3895 873d 18a7 e9bd
000003d0: d1d7 c5bc a4a2 61bd c03f b93c 3442 613d
000003e0: a6c9 94bd 1a34 dc3d 58fb 5339 65c3 b03d
000003f0: a1db 3abd c401 1a3d e96c b13b af5c 00bc
-0.106630266 -0.026666328 -0.03904524 -0.06107746 0.089950755 -0.06459777 -0.10823985 -0.08611068
0.0029199158 0.08809324 0.10413836 0.06794697 0.008597285 0.035890058 -0.0942836 -0.1215187
-0.059864074 0.03530203 -0.004037266 0.11214118 0.12360427 0.098603845 -0.08922466 -0.13466696
0.090750955 -0.062413573 -0.055960238 0.015366761 -0.07373031 -0.12257956 -0.084808916 -0.11016984
0.07830487 0.074211895 0.047441687 -0.0071347146 -0.10536536 -0.034235857 -0.037280854 -0.09683406
-0.0870429 -0.014955795 0.006285443 -0.05441676 -0.004295392 0.09960994 -0.055781543 -0.031475574
-0.019790813 0.031935837 0.065412015 0.0047847563 0.036404032 -0.041192994 -0.044312105 0.065681964
0.05750156 0.0027313249 -0.04124089 -0.11441691 0.06586586 -0.10152988 0.024030996 -0.1240325
-0.070686325 0.09598255 -0.045829155 -0.050715044 0.037806768 0.08658743 0.10212302 0.09789398
0.0026872507 0.05603687 -0.010564476 0.11804864 -0.07710235 -0.052493587 -0.10077897 -0.0020062476
-0.039772913 0.03931839 0.0012111012 -0.039768428 0.08027579 0.06970551 0.005520199 -0.04549679
0.09975684 0.07896764 -0.015508607 0.116841346 0.0066851387 0.0071444064 -0.08894396 -0.08172974
0.11466027 -0.08526173 0.011635119 0.12760267 -0.1109925 -0.0067700907 0.0003686205 0.06298736
-0.045098275 -0.12606744 0.091655105 -0.026631907 0.0894807 0.08728105 -0.08873935 -0.012232517
-0.11559336 0.02113504 -0.011889732 -0.032782618 0.016551714 0.0021889508 -0.08940223 0.10099788
0.052162122 -0.1146623 0.10065158 -0.0028102386 -0.108089365 -0.07419001 0.06537113 0.11538691
0.11929385 0.05598747 -0.08129108 0.08728646 0.048668966 0.037985086 -0.11482057 -0.02090095
-0.065528095 0.045864277 -0.0066135377 0.00970982 -0.026526034 0.035777554 0.11294149 -0.046137944
-0.03565219 -0.032660145 0.08083138 -0.0074428916 -0.06948808 -0.0060232063 -0.05821658 -0.111861885
-0.04624047 -0.006032705 0.010831267 0.0013133783 -0.11650908 -0.081781924 0.07821071 0.04638629
-0.066714436 -0.023384651 -0.05862926 -0.080571346 0.11450183 0.037028354 0.02908433 0.014212176
0.11088435 0.036400042 -0.08568209 0.057512447 0.0068206745 0.025088578 -0.040911216 -0.12468156
-0.05376436 0.035725597 -0.05176623 0.122050755 0.00515227 0.071442306 -0.0058763176 0.095592275
0.009128013 -0.018570047 0.033490546 0.062339313 -0.12243695 0.088322625 0.031108662 0.07675914
-0.08446933 -0.109196454 -0.040843863 0.070681885 0.065820195 0.007619068 0.021987421 -0.06851792
-0.08281487 -0.05460205 0.07902697 0.031280592 0.12220812 0.08606228 0.118437655 -0.04784368
-0.009942144 0.03957639 0.088691704 0.02110809 -0.040181458 0.02670197 0.07764332 0.019222526
-0.061691392 0.08386257 0.008471683 0.008608979 0.034553863 -0.086629435 -0.017041758 0.05118653
-0.007815828 -0.04897189 0.08656891 -0.088840395 0.07375755 0.08467187 0.04345468 -0.11939265
0.05973579 0.11109431 -0.051251285 -0.09233932 0.0059548495 0.049588904 -0.025040038 0.12074255
0.028492361 0.10433782 0.06620258 -0.11408824 -0.02415076 -0.055086747 0.022613406 0.054994777
-0.07265024 0.10752125 0.00020216161 0.086310185 -0.04561961 0.03759934 0.0054145944 -0.0078345975

fc.2.bias f4 [9]
00000000: 9ce2 05bc 0d3a 5c3d 5bce bebd 1ef8 863d
00000010: a276 b53d 5766 4bbd 1bd2 05be f0eb 1abd
00000020: 81ef 1abd
-0.008171704 0.0537663 -0.09316703 0.06590293 0.08860518 -0.049658146 -0.1306843 -0.037822664
-0.037826065
