log/DeepLabV3_RTPose_separable_conv_regressor_weights.pt (torch, 463795 bytes, 11 tensors)

depthwise.weight f4 [1, 1, 3]
0	0x3eb79464	0.358554
1	0xbedc95ac	-0.4308294
2	0x3d9fb576	0.07798283

pointwise.weight f4 [16, 1, 1]
0	0x3f75c922	0.9601003
1	0xbecc18f1	-0.3986278
2	0xbc2984dd	-0.0103466185
3	0xbe3f8701	-0.18703844
4	0x3ea66360	0.32497692
5	0x3ed670a6	0.4188282
6	0x3f6e59e1	0.93105894
7	0xbf20a33d	-0.6274908
8	0x3f4ebe04	0.8075869
9	0xbf7d3958	-0.98915625
10	0xbf450621	-0.76962477
11	0x3f0304ab	0.51179
12	0xbecf11c6	-0.40443248
13	0xbf114865	-0.5675109
14	0x3e9ce100	0.3064041
15	0x3f4fc699	0.8116241

pointwise.bias f4 [16]
0	0x3dd57f44	0.104246646
1	0x3e9066b9	0.2820337
2	0x3f18357c	0.5945661
3	0xbf418d95	-0.7560666
4	0x3e8470e3	0.25867376
5	0xbf176e45	-0.5915263
6	0x3f6db191	0.9284907
7	0xbf1e7685	-0.61899596
8	0xbf42dfd1	-0.76122767
9	0x3f1c7ba8	0.61126184
10	0xbe637d19	-0.2221569
11	0x3f58a15f	0.8462123
12	0x3f4f38d4	0.8094609
13	0x3f374ccf	0.71601576
14	0x3ed7b13b	0.42127404
15	0x3f03b4dc	0.51447845

conv2.0.weight f4 [32, 1, 3]
0	0xbdb95cc2	-0.09050895
1	0xbf001100	-0.5002594
2	0xbe57178e	-0.21005079
3	0x3e379e37	0.17931448
4	0xbe6d425d	-0.23169847
5	0x3ef801f3	0.48438987
6	0xbf09c1aa	-0.5381113
7	0xbee71331	-0.4513183
8	0x3eb90300	0.361351
9	0xbeb93e37	-0.3618028
10	0xbefc0cf1	-0.49228624
11	0xbea0198c	-0.3126949
12	0x3e57c158	0.21069849
13	0x3ec72cf1	0.38901475
14	0x3e87cab7	0.26521847
15	0x3e36d93a	0.17856303
16	0x3ebf4f71	0.37365296
17	0x3e0aa258	0.13538492
18	0x3ddb1912	0.10698141
19	0xbef51618	-0.4786842
20	0xbe67ab15	-0.22623856
21	0x3e997ff0	0.2998042
22	0xbde4607a	-0.11151214
23	0xbe9db6a0	-0.30803394
24	0x3e22260d	0.15834828
25	0x3eb1ef1d	0.3475274
26	0x3e10d20d	0.14142628
27	0x3ebda772	0.37041813
28	0x3d748974	0.059701398
29	0x3e498c7b	0.19682495
30	0x3f065f18	0.5248885
31	0x3bd7e1a7	0.006588179
32	0x3e9cb2df	0.30605218
33	0x3d927bc8	0.07152516
34	0x3e682db9	0.22673692
35	0xbe8681fa	-0.2627104
36	0x3e866477	0.26248524
37	0xbea1979a	-0.31560975
38	0x3d3b3462	0.045704253
39	0x3deadb09	0.11467559
40	0x3e0babab	0.13639705
41	0x3f088a14	0.5333569
42	0xbf10fa9b	-0.56632394
43	0x3ce0dfd1	0.027450474
44	0xbec56f03	-0.38561258
45	0x3e83e3de	0.25759786
46	0xbd2c6775	-0.04209085
47	0xbe819fff	-0.2531738
48	0x3ea3c7d4	0.31988394
49	0x3dfc0e0d	0.123073675
50	0x3f1296d6	0.5726141
51	0xbea2d73e	-0.31804842
52	0x3d08d85e	0.03340947
53	0x3d16a0b3	0.03677435
54	0xbeae669b	-0.34062657
55	0x3e3d4fa7	0.18487416
56	0x3e9f8388	0.31155038
57	0xbe95ab77	-0.2923238
58	0xbf0c3e72	-0.54782784
59	0xbdbe73a7	-0.09299403
60	0x3f09aea6	0.5378212
61	0x3e4849d1	0.19559409
62	0x3eb63fdb	0.35595593
63	0x3d9f1e97	0.077695064
64	0x3eb8cc52	0.36093384
65	0xbde3bdc4	-0.11120179
66	0xbecab31e	-0.3958978
67	0xbf08b231	-0.533969
68	0x3e456266	0.19275817
69	0xbecd7967	-0.40131685
70	0xbe150064	-0.1455093
71	0xbb8c4e44	-0.004281791
72	0xbd18e67f	-0.037329193
73	0xbf13a462	-0.57672703
74	0x3e89c780	0.2691002
75	0x3dac23f9	0.08405299
76	0x3f06cb3f	0.5265388
77	0xbeb7748f	-0.35831115
78	0x3ed266a3	0.4109393
79	0x3ecaba89	0.3959544
80	0xbe8ae4ef	-0.27127787
81	0xbef9dc30	-0.48800802
82	0xbeaf9c52	-0.3429895
83	0x3ec63c7d	0.38718024
84	0xbe51def3	-0.20495205
85	0x3f002782	0.50060284
86	0x3e68981b	0.22714274
87	0x3cb6c8a3	0.022312468
88	0x3ebaa564	0.36454308
89	0xbe3bb2d6	-0.18329939
90	0xbeb3f1fc	-0.35145557
91	0x3c607a88	0.013701089
92	0xbde92f66	-0.11385994
93	0xbe5909b0	-0.21195102
94	0x3e5974e4	0.21235996
95	0x3ed5ac45	0.41732994

conv2.0.bias f4 [32]
0	0x3e820ad4	0.25398886
1	0xbd131944	-0.035912767
2	0xbd8a581c	-0.06755087
3	0x3e1b9e2a	0.15197054
4	0x3e770687	0.24123584
5	0xbeb4ac7c	-0.35287845
6	0xbf0c1873	-0.54724807
7	0x3ece4c6a	0.40292674
8	0x3c7259ce	0.014791919
9	0xbefbcbd6	-0.49178952
10	0xbdacd6c5	-0.084394015
11	0x3f017aea	0.50578177
12	0x3e9972e5	0.2997047
13	0xbe14fc19	-0.14549293
14	0xbe02fff5	-0.12792952
15	0xbddaca72	-0.10683145
16	0x3e71e61c	0.23622936
17	0xbe134820	-0.14382982
18	0xbefccf74	-0.49377024
19	0xbe818752	-0.25298554
20	0xbe9ffa16	-0.31245488
21	0xbec97603	-0.39347848
22	0xbe708576	-0.23488411
23	0xbefc6a8d	-0.49300042
24	0x3ec27391	0.37978795
25	0xbe6f93f7	-0.23396288
26	0xbcb8afc9	-0.022544758
27	0xbe538221	-0.20655109
28	0xbdeb0360	-0.11475253
29	0xbe395890	-0.1810019
30	0xbeac4356	-0.33645123
31	0xbefcca85	-0.4937326

conv2.1.weight f4 [32, 32, 1]
0	0xbd8e5ded	-0.06951509
1	0x3db12b67	0.086508565
2	0xbe19b220	-0.15009356
3	0xbe1b2a15	-0.15152772
4	0x3d06c81f	0.032905694
5	0xbd2ab6b7	-0.041678157
6	0xbdcfdb7a	-0.10149284
7	0xbd0966ba	-0.033545233
8	0xbc3f8ea2	-0.011691721
9	0x3b454fa9	0.0030107296
10	0x3e27df1e	0.16393706
11	0x3d81f2c0	0.06345129
12	0xbd617a97	-0.05504855
13	0xbd86faef	-0.065908305
14	0x3d8f999d	0.07011721
15	0xbe153a57	-0.14573036
16	0xbcba520b	-0.0227442
17	0x3e0c1296	0.13678965
18	0xbe2783ae	-0.16358826
19	0xbe00523e	-0.12531373
20	0x3e131047	0.14361678
21	0x3b49bb76	0.0030781901
22	0x3d78e7ad	0.06076782
23	0xbe2b46bd	-0.16726203
24	0xbc49ac98	-0.012309216
25	0xbe17197b	-0.14755814
26	0x3d811e74	0.063046366
27	0xbcd4ee58	-0.025992557
28	0xbac38747	-0.0014917635
29	0xbd9adf7c	-0.075621575
30	0xbe086a1c	-0.13321728
31	0x3d9fd3c4	0.07804063
32	0x3d7f5496	0.062336527
33	0xbe2bd34e	-0.16779825
34	0x3d103415	0.03520592
35	0x3df45fd2	0.11932339
36	0xbce4b08b	-0.027916213
37	0x3e1178db	0.14206259
38	0xbcd3f3c9	-0.025873082
39	0xbdf5f2a3	-0.1200917
40	0x3d9374f2	0.0720004
41	0x3e0d152f	0.13777612
42	0x3c0ddbe3	0.008658382
43	0x3de618e1	0.11235214
44	0x3dc538ab	0.09629949
45	0xbc9ebb81	-0.019376518
46	0xbe22b8a6	-0.1589075
47	0x3d4b843c	0.049686655
48	0x3e149a66	0.14512023
49	0x3dd636e2	0.10459687
50	0xbcd685fe	-0.02618694
51	0x3cb57f03	0.02215529
52	0xbcd4f328	-0.025994852
53	0xbc9843ad	-0.018586958
54	0xbd6107c9	-0.054939065
55	0x3d1b4a9f	0.03791296
56	0xbda48c7a	-0.08034606
57	0x3e23e481	0.16005136
58	0xbbc04793	-0.0058679073
59	0xbde1cce6	-0.110254094
60	0xbd1c6d5c	-0.03819023
61	0x3c33ccb7	0.010974101
62	0xbe028f3d	-0.12749954
63	0xbdf839f1	-0.121204264
64	0x3e02421d	0.12720533
65	0x3e303074	0.17205983
66	0xbd240c43	-0.040050756
67	0xbe13f139	-0.14447488
68	0xbe1a2fe0	-0.15057325
69	0x3d977af2	0.07396497
70	0xbe119c81	-0.14219858
71	0x3d91cce9	0.07119162
72	0xbd863869	-0.06553728
73	0x3b5e75e3	0.0033944778
74	0xbb625388	-0.0034534652
75	0xbd76e25b	-0.060274463
76	0x3da6aafd	0.08138082
77	0x3dfdf568	0.12400323
78	0x3e11ae8f	0.14226745
79	0xbc910ace	-0.017705347
80	0x3dbc2c50	0.091881394
81	0xbe34bc41	-0.17649938
82	0x3dcda162	0.10040547
83	0x3dd6256e	0.10456358
84	0xbcebab2d	-0.028768146
85	0xbe13c240	-0.14429569
86	0xbc40253a	-0.0117276255
87	0x3e1ef0ac	0.15521497
88	0x3ca35a9d	0.019940669
89	0x3dad64cc	0.08466491
90	0x3dc62224	0.096744806
91	0xbdbc42d2	-0.091924325
92	0xbdd72ca1	-0.10506559
93	0x3ba069e5	0.004895436
94	0x3cc8de00	0.02451992
95	0x3d91eeda	0.071256354
96	0xbdb8398d	-0.08995352
97	0xbe2e8de1	-0.1704631
98	0xbe1bf07a	-0.15228453
99	0xbcd6cb40	-0.026219964
100	0x3e25bb03	0.1618462
101	0x3dd0778f	0.10179054
102	0xbd298ad2	-0.041392155
103	0xbcdedeff	-0.027205942
104	0x3d07c861	0.03315008
105	0xbda438f4	-0.080186754
106	0xbe2c9ae3	-0.1685596
107	0xbbf62132	-0.0075112814
108	0xbe2f7c15	-0.17137177
109	0x3d8c2216	0.06842439
110	0xbdcd3ec8	-0.1002174
111	0xbd6d7d29	-0.05798069
112	0x3d957905	0.07298473
113	0x3dbb554a	0.09147127
114	0xbe0aafd0	-0.1354363
115	0x3e2de25e	0.16980883
116	0xbe0b097c	-0.13577837
117	0x3df64f6c	0.12026867
118	0x3dd4ce18	0.10390872
119	0x3d831ad5	0.06401602
120	0xbd791d49	-0.060818944
121	0x3da985f7	0.08277505
122	0xbd90f01b	-0.070770465
123	0x3e2fe601	0.17177583
124	0xbda8aa3c	-0.08235595
125	0xbe120f60	-0.14263678
126	0x3d9bce3e	0.07607697
127	0xbdf5bc19	-0.119987674
128	0xbd915c3d	-0.07097671
129	0x3e1b3033	0.15155105
130	0x3c758d4e	0.014987303
131	0xbe24b9a1	-0.16086437
132	0xbd39d201	-0.04536629
133	0x3e06d2a3	0.13166289
134	0xbe0627d3	-0.13101129
135	0xbcdf2ed7	-0.027244015
136	0xbdb6da2a	-0.0892833
137	0xbd989c9d	-0.074517466
138	0xbe297cae	-0.16551468
139	0x3dd490c8	0.10379177
140	0x3dca52e8	0.09879094
141	0x3d2ca8a7	0.042153027
142	0x3e02cd97	0.12773739
143	0x3aa8b005	0.0012869841
144	0xbe131c09	-0.14366163
145	0x3d1ddbe0	0.038539767
146	0x3dc7de7e	0.09759234
147	0xbd0f20dc	-0.034943447
148	0xbd6645fc	-0.056219086
149	0xbd952d11	-0.07283986
150	0x3d58ffdf	0.052978393
151	0xbcb86a61	-0.022511663
152	0xbe07fffd	-0.13281246
153	0x3d077da1	0.033078793
154	0x3db93ae9	0.09044439
155	0xbe22a2c9	-0.1588241
156	0x3c945943	0.01810897
157	0xbd8da3e8	-0.06916028
158	0x3e0b2532	0.13588408
159	0x3de3d02d	0.11123691
160	0x3e0e52ca	0.13898769
161	0x3d91c392	0.0711738
162	0xbd5b993e	-0.05361294
163	0x3dc72751	0.09724296
164	0xbd484ca7	-0.048901226
165	0xbd3612c4	-0.04445149
166	0x3cda8def	0.026679007
167	0x3dc61e35	0.0967373
168	0xbdc43172	-0.095797434
169	0xbc8e37e4	-0.017360635
170	0xbcdb3927	-0.02676065
171	0x3e2ede99	0.17077102
172	0xbd84e58e	-0.064890966
173	0x3dbda298	0.09259528
174	0xbe24d7f2	-0.16098002
175	0x3e28a879	0.16470517
176	0x3e2af6e5	0.16695745
177	0x3da2a970	0.07942474
178	0xbdfc760e	-0.12327205
179	0xbd827e4e	-0.06371747
180	0x3d0049fc	0.031320557
181	0xbe096d7f	-0.13420676
182	0xbde2bfc4	-0.11071733
183	0xbdfeb9cf	-0.12437784
184	0xbdc8cef4	-0.09805098
185	0x3dfac14c	0.122439
186	0x3e2565bf	0.16152094
187	0x3d74ffe7	0.05981436
188	0xbdd139c7	-0.10216098
189	0x3e081c64	0.1329208
190	0x3d3d3467	0.046192553
191	0xbd8e5455	-0.06949679
192	0x3e1b089a	0.1514
193	0xbdb74b31	-0.089498885
194	0x3dae4fec	0.08511338
195	0xbdb0acbb	-0.08626696
196	0xbdb1d4e3	-0.08683183
197	0x3e13284b	0.1437084
198	0x3dcf072b	0.10108789
199	0x3da5bb4e	0.08092366
200	0xbc1c5ad8	-0.009543143
201	0xbb6488c9	-0.003487157
202	0x3dfe58c6	0.12419276
203	0x3e330f5c	0.17486328
204	0x3e2c4217	0.16822086
205	0x3e00a3eb	0.1256253
206	0x3dcd2e73	0.10018625
207	0xbd9e5fe1	-0.07733131
208	0x3d62659f	0.055272695
209	0x3d9e8837	0.07740825
210	0xbcee6137	-0.02909909
211	0xbdf26e49	-0.118374415
212	0xbd980d37	-0.074243955
213	0x3c707ab8	0.014677696
214	0x3d8bd021	0.06826807
215	0xbd656046	-0.056000017
216	0xb8233dfe	-3.8919963e-05
217	0xbc68a0d4	-0.014198501
218	0xbbda6010	-0.0066642836
219	0x3e11b27b	0.14228241
220	0xbceeaec6	-0.029136073
221	0x3d94d573	0.07267275
222	0xbe004c18	-0.12529027
223	0x3c9c95fb	0.019114485
224	0xbe0f6b58	-0.14005792
225	0x3dccf46d	0.10007558
226	0x3ce28c97	0.02765493
227	0x3da353d8	0.07974976
228	0x3deaa338	0.11456913
229	0xbe11c5f3	-0.14235668
230	0xbc95a47c	-0.018266909
231	0x3e36a2ee	0.1783559
232	0x3e1481f1	0.14502694
233	0x3cefdd24	0.029280253
234	0xbacd1e93	-0.0015649371
235	0x3ce4c8ea	0.027927835
236	0x3d2c0688	0.041998416
237	0xbda151ff	-0.07876968
238	0xbdd168a3	-0.10225036
239	0x3d840b13	0.06447425
240	0x3e1ffaa8	0.15622962
241	0xbdafd391	-0.08585275
242	0xbc6f7149	-0.014614412
243	0xbcbb2f4e	-0.022849705
244	0x3e05da0a	0.13071457
245	0x3e23f474	0.1601122
246	0x3d877ece	0.06615983
247	0xbd96a7dc	-0.073562354
248	0xbc64f836	-0.013975194
249	0x3dec7f57	0.11547726
250	0x3cf6179e	0.030040558
251	0x3c0605f9	0.008180135
252	0xbd8868a5	-0.06660584
253	0x3d694d2a	0.056958355
254	0xbda959a0	-0.08269048
255	0x3d9923ff	0.07477569

conv2.1.bias f4 [32]
0	0xbcda0162	-0.026611988
1	0xbd59aab5	-0.053141315
2	0xbdddf517	-0.10837763
3	0x3e15f239	0.14643182
4	0x3d5e3bcc	0.054256245
5	0xbd6a4571	-0.05719513
6	0x3d70454a	0.05865983
7	0x3e048187	0.12940036
8	0xbb879dc1	-0.004138679
9	0xbd4e17da	-0.050315715
10	0xbdfebfab	-0.124389015
11	0xbcbd45c9	-0.023104565
12	0x3de22407	0.11042028
13	0x3b5fbea1	0.0034140723
14	0x3bf25e89	0.0073965234
15	0x3d8c46f9	0.068494745
16	0x3c99d51b	0.018778374
17	0xbd749d06	-0.05972006
18	0xbe32e445	-0.1746989
19	0x3de178cb	0.110093676
20	0x3e34fda5	0.17674883
21	0xbe15df82	-0.14636043
22	0xbe257a4f	-0.16159938
23	0x3d8844eb	0.0665377
24	0xbd45a7cd	-0.04825573
25	0x3e001f25	0.1251188
26	0xbd417963	-0.047234904
27	0x3e2dcdf1	0.16973092
28	0xbd07325b	-0.033007007
29	0x3ddf798e	0.109118566
30	0x3dadbc59	0.0848319
31	0xbdbb11a6	-0.091342255

fc.0.weight f4 [64, 1760]
0	0xbc5c49ed	-0.01344536
1	0xbc310dfa	-0.010806555
2	0xbc9999d1	-0.018750103
3	0x3c9f6538	0.019457445
4	0xbc0f3ba2	-0.008742245
5	0xbca5eea4	-0.020255394
6	0x3a3e123f	0.00072506437
7	0x39a70bf1	0.0003186162
8	0xbcb1df5d	-0.021712953
9	0xbc037a84	-0.0080248155
10	0xbc8edc40	-0.017439008
11	0x3c929c15	0.017896691
12	0xba119490	-0.00055534486
13	0x3ca3c796	0.01999263
14	0xbc0ed3d6	-0.008717498
15	0x3c186401	0.009301187
16	0x3c688e00	0.014194012
17	0xbb22d757	-0.002484759
18	0xbc09d0e4	-0.00841162
19	0x3a9e9889	0.0012099902
20	0xbc0986c6	-0.008393949
21	0x38c713b8	9.492732e-05
22	0xbc0fb408	-0.00877095
23	0xbcbed6be	-0.023295756
24	0xbc8e5835	-0.017376045
25	0xbc0fa12d	-0.008766455
26	0xbc4b1cad	-0.012396974
27	0xbc2ad75d	-0.010427323
28	0xbc8e01a7	-0.017334772
29	0xbc865a7e	-0.016400572
30	0xbc8c39cd	-0.017117405
31	0xbbac0eae	-0.0052507734
32	0x3b3cd68e	0.0028814408
33	0x3c893aba	0.016751636
34	0x3c8d842d	0.01727494
35	0xbcb99ba4	-0.022657223
36	0xbc3cbff5	-0.0115203755
37	0x3c7ab8c4	0.015302841
38	0xbcb2027e	-0.021729704
39	0x3c84b2b3	0.016198492
40	0xb9acbaed	-0.00032945667
41	0xbc4407c0	-0.011964738
42	0x3c384e9f	0.0112492135
43	0xbbec5d06	-0.0072132377
44	0x3b62a570	0.0034583472
45	0xbc248180	-0.010040641
46	0xba8309c5	-0.0009997418
47	0x3c8293dd	0.015939647
48	0x380a5f0b	3.299028e-05
49	0xbbbf876e	-0.005845002
50	0x3b03722c	0.0020057065
51	0xbbce2363	-0.0062908395
52	0xbc53cd67	-0.01292739
53	0x3c26e334	0.010186005
54	0x3c028631	0.007966564
55	0xbc1bd083	-0.009510162
56	0x3b405749	0.00293489
57	0xbbe0aa76	-0.006856258
58	0xbcc17c46	-0.023618829
59	0x3c52dbc5	0.01286978
60	0xbbf53442	-0.0074830363
61	0x3c6384c7	0.013886637
62	0xbbb34de2	-0.005471931
63	0xbcafad0e	-0.021444824
64	0x3be68711	0.007035144
65	0x3c18aaa5	0.009318029
66	0xbbb0c499	-0.00539453
67	0x3bf7abf3	0.0075583397
68	0x3c750891	0.014955656
69	0x3cc0d9c8	0.023541346
70	0xbba6353f	-0.0050722654
71	0x3c7b541e	0.015339879
72	0x3b8222c5	0.00397143
73	0xbca85708	-0.020549312
74	0x3c4b0222	0.012390645
75	0xbb327304	-0.00272292
76	0xbb133577	-0.0022462287
77	0x3cab4e77	0.020911438
78	0xbbc4807f	-0.0059967632
79	0x3c3b677c	0.011438247
80	0x3cadee29	0.021231728
81	0xbc9819a4	-0.018566914
82	0xbb4eb8c0	-0.0031543225
83	0x3c345d09	0.011008509
84	0xbc4e1707	-0.012578732
85	0x3c64a4ff	0.013955354
86	0x3bacac07	0.0052695307
87	0x3c0ddddb	0.0086588515
88	0x3c7012d4	0.0146529265
89	0x39c7a62c	0.00038080045
90	0x3c3ba15f	0.011452048
91	0x3c8a8799	0.016910361
92	0xbba8163e	-0.0051296046
93	0x3ca13a94	0.019681253
94	0xbc0b33c2	-0.008496227
95	0x3c2842c2	0.010269823
96	0xbcb3d138	-0.02195035
97	0xbc4b4c41	-0.012408317
98	0xbc90b566	-0.017664623
99	0x3c9655c3	0.018351441
100	0x3c89ea58	0.016835377
101	0x3c9c6a16	0.019093554
102	0x3cb90575	0.02258561
103	0xbc17163c	-0.00922161
104	0xbbdc805e	-0.0067291697
105	0xbc944cf1	-0.018103095
106	0xbc3a23fc	-0.011361118
107	0x3b2fa695	0.0026802171
108	0x3c194b1d	0.009356287
109	0xbbd3dab7	-0.006465282
110	0xbcb6247e	-0.022234198
111	0x3b9f7a81	0.0048668985
112	0xbc33dbf2	-0.010977732
113	0x3b9efbe9	0.0048518074
114	0xbc441e10	-0.011970058
115	0xbc3975d9	-0.011319601
116	0xbc401e08	-0.01172591
117	0xbc240ee5	-0.010013317
118	0x3a4ec255	0.0007887234
119	0x3c942d07	0.018087877
120	0xbc8aaeb1	-0.016929002
121	0x3ace2302	0.0015726986
122	0x3bf70837	0.007538821
123	0x3c1ec1e1	0.009689779
124	0xbc57e798	-0.013177775
125	0x3c38e939	0.011286073
126	0x3ba7e39d	0.005123569
127	0xbc8e6a23	-0.017384594
128	0x3cbed277	0.023293717
129	0xbc851bab	-0.016248545
130	0xbb99ea94	-0.0046971533
131	0x3cb6b2c1	0.022302033
132	0xbcadcfa9	-0.021217184
133	0x3ba97197	0.0051710117
134	0x3cbda3df	0.023149429
135	0xbaebaebb	-0.0017981151
136	0x3c4b71d2	0.012417274
137	0xbca841e9	-0.02053924
138	0xbbd6ccf4	-0.006555194
139	0x3beecf85	0.007287922
140	0xbc01f5d9	-0.00793215
141	0xbab7fbd0	-0.0014036838
142	0x3bae02ad	0.0053103776
143	0xbc14142c	-0.0090380125
144	0x3c0312b8	0.008000068
145	0x3cc0c63a	0.023532022
146	0xbc15edfe	-0.00915098
147	0x3c62372f	0.013807102
148	0xbc2f560a	-0.010701666
149	0x3c288d02	0.010287525
150	0xbc112c7b	-0.008860703
151	0xbcab66f0	-0.020923108
152	0xbcba6435	-0.02275286
153	0xbc3b96a8	-0.0114494935
154	0x3c14348a	0.009045729
155	0x3cc06953	0.023487723
156	0x3c442b35	0.011973192
157	0xbc9899d1	-0.018628033
158	0xba02e264	-0.0004992841
159	0xbc440038	-0.011962943
160	0xbcbfe002	-0.023422245
161	0xbc98efbb	-0.018669
162	0x3b3aa866	0.002848172
163	0x3c63a74b	0.013894866
164	0x3c1d9979	0.00961911
165	0xbc9c6a85	-0.019093761
166	0xbc8423e3	-0.016130393
167	0xbc07efd3	-0.008296925
168	0x3c307718	0.010770582
169	0xbc37c091	-0.011215345
170	0xbc581051	-0.013187484
171	0x3c8030b6	0.015648227
172	0xbc0b76b1	-0.008512185
173	0x3b05def9	0.0020427092
174	0xb6f95499	-7.4306267e-06
175	0x3c2fb7dd	0.010724989
176	0xbc903043	-0.017601138
177	0xbc90bbd1	-0.017667683
178	0xbae5eeae	-0.0017542446
179	0xbca9bfda	-0.020721365
180	0x3ba2581f	0.0049543525
181	0x3b70d6f1	0.0036749209
182	0xbb43bbbf	-0.0029866544
183	0x3c9485b0	0.018130153
184	0x3c22b8ec	0.009931784
185	0x3c7841eb	0.015152435
186	0xbcb10cdc	-0.021612577
187	0xbbc7acba	-0.0060935887
188	0xbb99781e	-0.0046835085
189	0xbbf75c9f	-0.007548883
190	0x3caac9c7	0.020848168
191	0x3c9c77cc	0.019100092
192	0xbc144a8e	-0.009050978
193	0xba5fcf79	-0.0008537691
194	0x3bc0af32	0.00588026
195	0x3ba5ce9b	0.0050600297
196	0xbb5384cf	-0.0032275205
197	0xbcbeb40e	-0.023279216
198	0xbae6e201	-0.0017614962
199	0x39953a93	0.00028463136
200	0xbc8fe7eb	-0.017566642
201	0xbc717200	-0.014736652
202	0x3c8d8b89	0.01727845
203	0xbc0eba4e	-0.008711411
204	0x3bba4add	0.005685194
205	0xbcb26a6a	-0.021779258
206	0xbc8c604d	-0.017135764
207	0xbc261ed4	-0.010139186
208	0xbba4db1d	-0.005031003
209	0xb7a10a32	-1.9197443e-05
210	0x3998f7da	0.00029176363
211	0x3c90b5ab	0.017664751
212	0x3cb40e95	0.02197961
213	0xbb5f3841	-0.003406063
214	0xbca8d787	-0.020610584
215	0x3c6bde24	0.014396224
216	0xb8b73842	-8.736599e-05
217	0x3c179f39	0.00925427
218	0xbc86b9fa	-0.016446102
219	0xbca5b293	-0.020226752
220	0x3c7da4fe	0.015481232
221	0x3c090fd4	0.00836559
222	0x3c0bd34c	0.008534264
223	0xbae8a115	-0.0017748201
224	0x3c0c9265	0.008579825
225	0xbbc9b664	-0.006155776
226	0xbcb46b48	-0.022023812
227	0x3b182ea0	0.002322115
228	0x3bab4c27	0.005227584
229	0xbaef6af5	-0.0018266129
230	0xbbe501c5	-0.0069887363
231	0xbc984340	-0.018586755
232	0x3c905c43	0.017622119
233	0x3a098144	0.00052453973
234	0x3c896e0b	0.016776105
235	0x3c94a310	0.01814416
236	0x3ca3151e	0.01990753
237	0x3ca71dc4	0.020399936
238	0xbcb6c0c2	-0.022308711
239	0xbca6f075	-0.02037833
240	0x3cbaa0bd	0.022781724
241	0xbcbd5270	-0.023110598
242	0x3c89b809	0.016811388
243	0xbc018e32	-0.007907437
244	0x3c126920	0.008936197
245	0xbc463130	-0.012096688
246	0xbc38ba56	-0.011274895
247	0xba5c37f4	-0.00084006716
248	0x3c133ae3	0.008986208
249	0x3c91875c	0.01776474
250	0xbca4cb23	-0.020116394
251	0xbc8eb98e	-0.017422464
252	0x3cc0c7b9	0.023532735
253	0x3c9a4cbc	0.018835418
254	0xba88f6eb	-0.0010449564
255	0x3ca49e59	0.020095037

fc.0.bias f4 [64]
0	0x3c1c564e	0.009542061
1	0xbc0aa16d	-0.0084613385
2	0xbc0aefd2	-0.008480029
3	0xbc3c235a	-0.011483038
4	0x3c98c045	0.018646369
5	0xbc463bad	-0.012099189
6	0x3c72e607	0.014825351
7	0x3b560c73	0.003266123
8	0xbc095b05	-0.008383517
9	0xbb944b9e	-0.004525616
10	0x3c2933dd	0.010327307
11	0x3ca7b7c9	0.020473378
12	0x3c2f4351	0.010697202
13	0x3b40944f	0.0029385274
14	0x3c887a84	0.016659983
15	0x3b742ac4	0.0037256936
16	0x3cb42d9e	0.021994408
17	0xbb449e01	-0.0030001404
18	0x3bd8803c	0.0066070836
19	0x3c8bc358	0.01706092
20	0x3cc88104	0.024475582
21	0xbc9970a6	-0.018730473
22	0x3cb72618	0.022357032
23	0x3ca38c9d	0.01996451
24	0xba88214d	-0.0010385901
25	0xbbbb0dc7	-0.0057084295
26	0x3c652543	0.013985935
27	0xbc93c494	-0.018038072
28	0xbbf40752	-0.0074471617
29	0x3c9531af	0.018212168
30	0xbcc8648e	-0.02446201
31	0x3b85c1f5	0.0040819594
32	0xbc7aa0ee	-0.015297158
33	0x3b9389cf	0.004502512
34	0x3cb0d9e2	0.02158827
35	0xbbc363cc	-0.0059628244
36	0x3cae886d	0.021305287
37	0x3c9608b1	0.018314691
38	0x3c6dcf06	0.01451469
39	0xbc3b53f2	-0.011433588
40	0x3c972992	0.01845244
41	0x3c836eab	0.016043982
42	0x3a127d03	0.0005588086
43	0x3cbb090b	0.02283146
44	0xbca4cabe	-0.020116206
45	0x3ba758b9	0.005107012
46	0x3cb4f484	0.02208925
47	0x3c4c4634	0.01246791
48	0x3cc294dc	0.023752622
49	0xbb10e551	-0.002210934
50	0x3c1e98de	0.009680001
51	0xbc8479bc	-0.016171329
52	0xbc7eedd5	-0.015559633
53	0x3cd09bb0	0.025464863
54	0x3b6dcf97	0.0036287063
55	0xbcb417f2	-0.021984074
56	0x3caf7e91	0.021422656
57	0x3c64aabc	0.013956722
58	0xbc6d10de	-0.0144693535
59	0x3be1c13f	0.006889492
60	0x3cbfb78e	0.023402955
61	0x3c8b4631	0.017001243
62	0x3c12fa7c	0.008970853
63	0xbbc76b02	-0.0060857544

fc.2.weight f4 [9, 64]
0	0xbda46850	-0.080277085
1	0x3dcd4f4a	0.10024889
2	0xbd75f3e6	-0.060047053
3	0x3dce52f2	0.10074414
4	0x3d1c69ef	0.038186964
5	0xbdd9a988	-0.10628039
6	0x3d78b4d5	0.06071933
7	0xbdda05a3	-0.10645606
8	0x3b8570a0	0.004072264
9	0x3db1c0be	0.08679341
10	0xbd785a8c	-0.060633227
11	0xbd1f782c	-0.038932964
12	0x3ce11da8	0.027479962
13	0xbd9bbdc6	-0.07604556
14	0xbb950d40	-0.0045486987
15	0xbda0d1b8	-0.07852501
16	0xbdc65471	-0.09684075
17	0x3c622eb0	0.0138050765
18	0xbd803643	-0.062603496
19	0xbd67d328	-0.05659786
20	0xbdf68d9a	-0.12038727
21	0xbc1f4ea0	-0.0097233355
22	0x3cf773d3	0.030206596
23	0x3c440a5e	0.011965362
24	0x3dcdfb15	0.10057656
25	0xbddb99cb	-0.10722693
26	0x3d2fedc0	0.042951345
27	0xbc52e82e	-0.012872739
28	0xbca544a8	-0.02017434
29	0xbda6a300	-0.081365585
30	0x3c7ae715	0.015313883
31	0x3d865ee3	0.06561067
32	0x3b8e2053	0.0043373494
33	0x3dca6817	0.09883135
34	0x3d0d13e1	0.034442786
35	0x3db13b1f	0.086538546
36	0x3dc3d076	0.09561245
37	0xbddf2688	-0.10896021
38	0x3e01ea3a	0.12687007
39	0xbd821697	-0.06351965
40	0x3dfe5f7a	0.124205545
41	0xbd4949a8	-0.04914251
42	0x3db31da0	0.08745885
43	0x3c5dd9ec	0.013540726
44	0x3d9a14ea	0.0752352
45	0x3cb2dd74	0.021834113
46	0x3d7fd4f7	0.06245896
47	0xbdaeee2e	-0.08541523
48	0xbd882706	-0.06648068
49	0x3bd92807	0.006627086
50	0xbde62ca2	-0.11238982
51	0x3d0117a3	0.031516682
52	0xbd58f18c	-0.052964732
53	0xbd5962f9	-0.053072903
54	0x3df25bbb	0.118339024
55	0xbdad1c56	-0.0845267
56	0x3c8056d0	0.015666395
57	0xbd760dc5	-0.060071725
58	0x3d1d2b22	0.038371213
59	0xbd90ca33	-0.070698164
60	0x3c3faa1d	0.011698273
61	0x3c845b86	0.016156923
62	0xbab6d309	-0.0013948391
63	0xbdd5e293	-0.10443606
64	0xbb55fdc0	-0.0032652467
65	0xbde65a04	-0.11247638
66	0xbd7b27b6	-0.06131717
67	0xbdea6b16	-0.11446206
68	0x3deb89df	0.11500906
69	0xbc695a0a	-0.014242658
70	0x3dd22110	0.102602124
71	0x3b5b3d5f	0.0033453328
72	0x3d1d2238	0.03836271
73	0xbdb31df8	-0.087459505
74	0xbd9291d2	-0.07156719
75	0x3ce2de5a	0.027693916
76	0xbd9648d8	-0.073381126
77	0xbd1c317c	-0.03813313
78	0xbcb4a060	-0.022049129
79	0x3de83620	0.113384485
80	0x3dbcbb50	0.092154145
81	0xbb9aa26a	-0.0047190683
82	0xbd3d5693	-0.04622514
83	0xbdf6b5f4	-0.120464236
84	0xbdb97b48	-0.09056717
85	0xbdd5ef26	-0.104460046
86	0xbd4d826a	-0.0501732
87	0xbd9d1342	-0.07669689
88	0x3d8bf8d2	0.06834568
89	0x3d8ef571	0.06980408
90	0x3d098c11	0.033580843
91	0x3dea3768	0.11436349
92	0x3d53f528	0.05174747
93	0xbdbbe9e0	-0.091754675
94	0x3d59959e	0.0531212
95	0xbd0091d9	-0.03138909
96	0xbd84cd6d	-0.06484494
97	0x3dee5c00	0.11638641
98	0xbdcc8167	-0.09985619
99	0x3da52e2f	0.080654494
100	0x3d992436	0.0747761
101	0x3dfe5068	0.1241768
102	0x3d95e961	0.07319904
103	0xbd06328f	-0.03276306
104	0x3db25f52	0.08709587
105	0x3dc9b488	0.09848887
106	0x3de4cba6	0.11171655
107	0xbdbf7166	-0.09347801
108	0x3dd39988	0.10332018
109	0xbdb36acb	-0.087606035
110	0x3cd9740d	0.026544595
111	0xbc2bf7e5	-0.010496114
112	0xbc2e6710	-0.010644689
113	0x3c201a17	0.009771845
114	0x3d085485	0.03328373
115	0xbd4f6db1	-0.05064172
116	0xbd52c0c4	-0.051453367
117	0x3ab9cf3d	0.0014176142
118	0x3dfa75b3	0.122294806
119	0xbd2489f9	-0.040170643
120	0x3d39cb58	0.04535994
121	0x3d18b715	0.037283976
122	0xbd9cfce3	-0.07665422
123	0x3c9e8531	0.01935062
124	0xbbab1235	-0.0052206763
125	0x3a0d9f76	0.00054024847
126	0x3df2e0fb	0.11859318
127	0xbdda57ee	-0.106613025
128	0xbd230ddc	-0.03980814
129	0xbc0becb0	-0.008540317
130	0x3df3151a	0.11869259
131	0xbd1f1cfc	-0.038846
132	0x3cf3e1bb	0.029770723
133	0xbbe9c545	-0.007134112
134	0xbdacaecd	-0.08431778
135	0x3c67e79c	0.014154341
136	0xbdefb64c	-0.11704692
137	0xbdd3f6f1	-0.10349835
138	0xbd1f1154	-0.038834885
139	0x3df3cb7f	0.11904048
140	0x3dcd4630	0.10023153
141	0x3c9b0538	0.018923387
142	0x3d3a7cc0	0.045529127
143	0xbda3bd58	-0.07995099
144	0x3d8eb36c	0.06967816
145	0x3db20ca1	0.08693815
146	0x3da858d7	0.0822007
147	0xbd83b4d0	-0.064309716
148	0xbd8af68f	-0.067853086
149	0xbd93d3a2	-0.072181
150	0x3d9472fd	0.07248495
151	0xbd461bae	-0.04836624
152	0xbd86d1cb	-0.065829836
153	0x3dc545d9	0.09632463
154	0xbd6aff99	-0.057372663
155	0x3daa8ca1	0.08327604
156	0xbdb79be6	-0.08965282
157	0x3da7979c	0.08183214
158	0x3d29aa1c	0.041421995
159	0x3c89805d	0.016784841
160	0xbd75b450	-0.059986413
161	0xbdb9978b	-0.09062108
162	0x3d138348	0.03601387
163	0x3bf9fb74	0.0076288525
164	0xbcac8400	-0.021059036
165	0x3da05c10	0.078300595
166	0x3ddf0a3a	0.108906224
167	0x3d921926	0.07133703
168	0xbdbfa35e	-0.09357332
169	0x3dc324b6	0.095284864
170	0x3aeb3446	0.0017944656
171	0xbda584ea	-0.08081992
172	0xbdafacbe	-0.0857787
173	0xbda37c09	-0.07982642
174	0xbd33fb27	-0.04394069
175	0xbdcfb9e7	-0.1014288
176	0xbc2edfb0	-0.010673448
177	0xbd8e6cc9	-0.06954343
178	0xbd5483c5	-0.051883478
179	0xbd8b59f6	-0.06804268
180	0xbdcecb50	-0.100973725
181	0xbcd1a265	-0.025590131
182	0x3d750dd1	0.05982763
183	0xbd74b034	-0.059738353
184	0xbd928892	-0.07154955
185	0xbc9f66bd	-0.01945817
186	0x3dcba973	0.09944429
187	0x3dbb66f0	0.09150493
188	0xbbe520c2	-0.0069924304
189	0x3dfdd5d1	0.12394298
190	0x3dd54b83	0.10414793
191	0xbddcb5ef	-0.107768886
192	0xbdf4915e	-0.11941789
193	0x3d9a5164	0.07535055
194	0xbbb3a6b0	-0.005482517
195	0xbd3303ff	-0.043704983
196	0xbd8cdc89	-0.06878001
197	0x3db4de09	0.08831412
198	0xbce7ff03	-0.028319841
199	0x3d6cc361	0.057803515
200	0x3d2c5e14	0.042081907
201	0x3d8bf9a0	0.068347216
202	0xbd83f1ee	-0.06442629
203	0x3da5026d	0.08057103
204	0xbd697474	-0.056995824
205	0xb8bb5800	-8.933246e-05
206	0xbdc21ee2	-0.09478547
207	0xbd190040	-0.037353754
208	0x3c788789	0.015169033
209	0xbd8880c0	-0.06665182
210	0x3ddc37bb	0.10752817
211	0x3d68b9c8	0.0568178
212	0x3dc7e583	0.09760573
213	0x3d844bca	0.06459768
214	0x3dac366b	0.08408817
215	0x3d4c9a07	0.04995158
216	0xbd8f7035	-0.07003824
217	0xbd3d1bd4	-0.046169117
218	0xbdb47ebc	-0.08813235
219	0x3dc88e6f	0.09792792
220	0x3cf78128	0.030212954
221	0xbd03607a	-0.03207443
222	0x3dffeb40	0.12496042
223	0x3d3ed9ee	0.046594553
224	0xbda9b0df	-0.082856886
225	0x3db4cde6	0.088283345
226	0x3d6d67fe	0.057960503
227	0x3d83f297	0.06442755
228	0xbdb5b03e	-0.08871506
229	0x3c681f70	0.0141676515
230	0x3d22703b	0.039657813
231	0x3dafca2a	0.085834816
232	0x3d47c310	0.04877001
233	0xbce4874f	-0.027896551
234	0xbd282335	-0.0410492
235	0xbd999f70	-0.075011134
236	0xbd84902c	-0.06472811
237	0xbdde4e71	-0.10854805
238	0xbd88112f	-0.066439025
239	0xbd827c29	-0.06371338
240	0x3db494fc	0.08817479
241	0x3db6c791	0.08924783
242	0x3c95c491	0.018282207
243	0xbdab60c1	-0.08368064
244	0xbd9ed352	-0.0775515
245	0xbdbd04e6	-0.0922945
246	0x3dd23541	0.102640636
247	0xbaaf9075	-0.0013394492
248	0xbbc3963e	-0.005968838
249	0xbd956a7a	-0.072956994
250	0x3c03a685	0.008035307
251	0xbcfac576	-0.030611735
252	0xbdb1fc03	-0.086906455
253	0x3dc9aaa0	0.09846997
254	0x3d411b12	0.047144957
255	0xbbeefd16	-0.007293354

fc.2.bias f4 [9]
0	0xbd57e013	-0.05270393
1	0xbddc98e4	-0.10771349
2	0xbd6be75d	-0.057593692
3	0xbdb864e0	-0.090036154
4	0x3d58da7d	0.05294274
5	0xbd014dd9	-0.031568382
6	0x3d8a8619	0.06763858
7	0x3c9a06ff	0.018802164
8	0x3dab1698	0.08353919
