log/U2Net_RTPose_separable_conv_regressor_weights.pt (torch, 463723 bytes, 11 tensors)

depthwise.weight f4 [1, 1, 3]
-0.42483246 -0.2811447 0.33135933
00000000: a483 d9be 33f2 8fbe eea7 a93e

pointwise.weight f4 [16, 1, 1]
0.21209963 0.867834 0.48514223 -0.94667965 -0.66070485 -0.56913334 -0.12473847 0.44004858
0.7693723 -0.45158347 -0.80963963 0.0479079 -0.9492006 0.5900797 0.549744 -0.88378
00000000: a530 593e 5e2a 5e3f 9064 f83e 9959 72bf
00000010: f423 29bf b9b2 11bf e276 ffbd 0c4e e13e
00000020: 95f5 443f f335 e7be 8b44 4fbf 133b 443d
00000030: cffe 72bf 770f 173f 06bc 0c3f 683f 62bf

pointwise.bias f4 [16]
-0.7403142 -0.52489537 -0.3809771 -0.02839589 -0.23056437 -0.10641564 0.48547444 -0.52686346
0.047281116 0.06663519 0.4942601 -0.4566297 0.4236357 -0.41086474 -0.19043538 -0.9151816
00000000: 3b85 3dbf 8b5f 06bf 6e0f c3be 7f9e e8bc
00000010: 1119 6cbe 71f0 d9bd 1b90 f83e 86e0 06bf
00000020: d8a9 413d 0878 883d a90f fd3e 5ecb e9be
00000030: c7e6 d83e dd5c d2be 7e01 43be 5749 6abf

conv2.0.weight f4 [32, 1, 3]
-0.0449953 -0.11982846 0.3573163 0.09681923 -0.52854806 0.25384223 -0.57592785 0.54835635
0.47457165 -0.57274145 -0.10771005 -0.090512596 0.12944931 0.04897313 -0.34322888 0.16450691
0.48450276 0.04869599 0.4886314 0.21491228 0.44321474 -0.49350613 0.08826292 -0.1323394
-0.5320958 0.14648072 0.117748275 -0.1441456 0.26616657 0.068800285 0.36577076 0.41740897
0.1781362 -0.37382665 0.109152734 -0.15527375 -0.22361468 0.33925828 0.5071354 0.11828836
-0.5695249 -0.31161737 -0.5742598 -0.31205598 0.37933436 -0.3819187 -0.14566132 -0.06308865
-0.23382154 -0.051264215 0.2914957 -0.52205044 -0.27012864 -0.3296279 0.067749456 -0.49329835
0.43290678 -0.42429277 0.39610672 0.18544205 -0.23442233 0.1035475 0.5012323 0.45304155
-0.37335044 -0.3420482 0.08878349 -0.047428083 0.050112747 0.4112862 -0.1750268 0.25837693
-0.4267523 0.3840851 -0.0733928 0.4651652 -0.3037561 0.25765336 -0.15417866 -0.51472664
-0.47551918 -0.12159805 -0.12380909 0.2576611 -0.1973511 0.2228299 -0.25090784 0.5849365
-0.19885862 -0.0871778 0.076337785 -0.55454975 -0.21361879 -0.05847444 0.024671279 -0.2189592
00000000: fe4c 38bd a068 f5bd 29f2 b63e 2949 c63d
00000010: ed4e 07bf 9cf7 813e 0270 13bf 1561 0c3f
00000020: 0efb f23e 2f9f 12bf 1697 dcbd ab5e b9bd
00000030: 5c8e 043e 0c98 483d b2bb afbe 8074 283e
00000040: bf10 f83e 7275 473d e52d fa3e f711 5c3e
00000050: 0bed e23e d6ac fcbe 31c3 b43d fb83 07be
00000060: 6e37 08bf 0bff 153e 0226 f13d e79a 13be
00000070: fc46 883e 2ae7 8c3d 4e46 bb3e a1b6 d53e
00000080: 5669 363e 3566 bfbe 788b df3d 1500 1fbe
00000090: 3ffb 64be 43b3 ad3e a0d3 013f 2b41 f23d
000000a0: 62cc 11bf 508c 9fbe b102 13bf cdc5 9fbe
000000b0: 1d38 c23e d98a c3be 3e28 15be 9f34 81bd
000000c0: ea6e 6fbe 6dfa 51bd ed3e 953e 19a5 05bf
000000d0: 4d4e 8abe fdc4 a8be 3ac0 8a3d 9a91 fcbe
000000e0: f5a5 dd3e e73c d9be 80ce ca3e 85e4 3d3e
000000f0: 680c 70be b610 d43d c350 003f 10f5 e73e
00000100: ca27 bfbe f120 afbe 1ed4 b53d f343 42bd
00000110: 0643 4d3d 1b94 d23e 3a3a 33be fb49 843e
00000120: 477f dabe cda6 c43e f74e 96bd 222a ee3e
00000130: eb85 9bbe 24eb 833e 03e1 1dbe 20c5 03bf
00000140: 4077 f3be 6608 f9bd 9f8f fdbd 28ec 833e
00000150: 6816 4abe 852d 643e fe76 80be 66be 153f
00000160: 98a1 4bbe 468a b2bd fc56 9c3d f9f6 0dbf
00000170: e2be 5abe e582 6fbd 6c1b ca3c d736 60be

conv2.0.bias f4 [32]
-0.2317378 -0.052406438 -0.09645029 -0.5066746 0.1296263 0.48691192 -0.15211374 -0.1418136
0.17333694 0.53190094 0.3754152 -0.20546447 0.38129833 0.14407818 -0.14683482 -0.14616035
-0.5296139 -0.015145218 -0.5337806 0.30906948 0.071709655 0.5680293 -0.240645 -0.2841754
-0.19025491 0.03455963 -0.100915745 0.45576125 -0.44748998 0.19604506 -0.17641763 -0.16389143
00000000: ad4c 6dbe 22a8 56bd bb87 c5bd 6db5 01bf
00000010: c2bc 043e 854c f93e b4c3 1bbe 9637 11be
00000020: 3d7f 313e a92a 083f 6c36 c03e 4765 52be
00000030: 8939 c33e 3b89 133e de5b 16be 0fab 15be
00000040: c794 07bf a623 78bc d8a5 08bf 5b3e 9e3e
00000050: 83dc 923d 5e6a 113f a56b 76be 707f 91be
00000060: 2fd2 42be 668e 0d3d eaac cebd 8a59 e93e
00000070: 681d e5be 09c0 483e d3a6 34be 28d3 27be

conv2.1.weight f4 [32, 32, 1]
-0.14598124 -0.08205722 -0.01672389 0.057142746 -0.0050265044 -0.060358755 0.083856896 0.16426356
-0.068081066 -0.038477644 -0.17193191 0.08522122 0.1532089 -0.15371259 0.054987576 -0.0055769524
0.020879498 -0.15272166 -0.1327275 0.17223041 0.03777703 0.16879627 -0.12868764 -0.14492086
0.16692802 -0.014210504 -0.14105909 0.15300551 0.033182334 0.033623777 -0.15228413 -0.1031938
-0.14806853 0.14113021 -0.15744817 -0.07342099 -0.13065284 -0.065771036 -0.12668498 0.15745907
-0.14484182 0.03218779 -0.031303983 -0.077338636 -0.1782895 -0.09480267 0.13631046 -0.1337316
0.16536987 -0.13219965 0.021593975 -0.0059336047 0.12789881 0.14748938 0.091579735 -0.15648676
-0.05635871 -0.046452817 0.028296007 -0.039400883 -0.014946999 -0.022162043 0.044891674 0.036618218
0.16607703 -0.07651244 -0.13417113 -0.17099926 0.0225944 -0.079625644 -0.02241031 0.15642734
0.15118246 -0.10828171 -0.10770761 -0.0343384 -0.12678659 -0.07791459 -0.035718832 -0.07116243
-0.1462805 0.027210569 -0.00760705 0.16791746 0.174206 0.015278669 0.072538875 -0.056912318
0.1511052 0.12652501 -0.1710082 -0.023793783 0.0066130664 0.036565762 -0.14275561 0.12702136
0.006338853 -0.071677044 0.15795264 -0.13504858 0.021954995 -0.09401146 -0.10972165 -0.026976135
-0.1409109 0.041536804 -0.17094254 0.16982643 0.023843147 -0.08386376 0.07550038 0.11167203
-0.13064593 -0.11319136 -0.09281565 -0.020277794 0.0054212715 0.0017305958 -0.09218444 -0.12934782
-0.15434337 0.13312064 -0.06429327 -0.10582331 0.027273966 0.09134717 -0.095556915 0.117827
-0.036856286 0.18111914 -0.05130453 -0.111275874 0.019359004 0.13928224 -0.1375939 -0.074549936
-0.0067003053 0.059825312 -0.0056847143 0.075681746 -0.075909905 -0.16879776 0.0041639 -0.08827161
-0.05846039 -0.123178445 0.06704428 -0.09928371 0.1707161 0.009154609 -0.07617118 0.016552437
-0.15390603 0.07761468 -0.095340386 -0.09947443 -0.15313332 -0.008889433 -0.16459584 0.17538802
-0.03968578 0.08344843 -0.12335182 0.14909121 0.13865553 0.17033258 0.09653798 -0.056155592
0.12834764 0.155512 -0.00897785 0.1012716 -0.16542928 -0.16866696 -0.1767628 0.15701562
-0.16669695 -0.039635867 -0.010778219 -0.023983905 0.046385527 -0.032049637 -0.011609146 -0.06803826
-0.12074899 0.16612457 -0.06756527 0.022333782 -0.17442252 0.005334093 -0.16348556 -0.07947517
0.11862209 -0.043423597 0.0893654 -0.076528214 0.05109758 -0.08357729 -0.15366139 -0.12537327
-0.04016823 0.08668452 -0.058444828 -0.10974138 -0.014388634 0.09648033 0.0711224 0.0055032717
0.058855895 0.014068967 0.0050733336 -0.065617606 0.105595954 -0.15776946 0.17177196 -0.020730922
0.080231555 0.042221148 0.00663073 -0.06552599 0.066130996 0.032177515 -0.06562357 0.0803504
0.017689483 -0.11360297 0.06131339 0.16829926 -0.10390266 0.18095097 -0.034265403 -0.12039137
-0.069291875 -0.06643166 -0.0008847651 0.033793565 0.032765206 0.17129491 -0.053661447 0.12194359
0.15347143 0.042231947 0.017820437 -0.015518115 -0.10026896 -0.023406718 0.0060155946 0.05817642
-0.17442822 -0.104439996 -0.03226556 -0.10972417 0.13654123 -0.12732854 -0.044599015 0.09713204
00000000: 1b7c 15be 9e0d a8bd 8a00 89bc 830e 6a3d
00000010: 60b5 a4bb be3a 77bd 2abd ab3d b534 283e
00000020: 166e 8bbd bc9a 1dbd eb0e 30be 7788 ae3d
00000030: cbe2 1c3e d566 1dbe a73a 613d debe b6bb
00000040: 7b0b ab3c 1163 1cbe b8e9 07be 2b5d 303e
00000050: 16bc 1a3d eed8 2c3e b1c6 03be 2266 14be
00000060: 2eef 2a3e 2cd3 68bc cb71 10be 7aad 1c3e
00000070: 33ea 073d 16b9 093d 5ff0 1bbe 4557 d3bd
00000080: 479f 17be 7084 103e 183a 21be be5d 96bd
00000090: dcc9 05be f7b2 86bd b5b9 01be f33c 213e
000000a0: 6a51 14be 58d7 033d 9b38 00bd b863 9ebd
000000b0: 8691 36be e727 c2bd f894 0b3e f0f0 08be
000000c0: b856 293e 585f 07be d9e5 b03c af6e c2bb
000000d0: e8f7 023e 7507 173e 288e bb3d 113e 20be
000000e0: 64d8 66bd 4f45 3ebd 07cd e73c d262 21bd
000000f0: 42e4 74bc 2c8d b5bc 55e0 373d fcfc 153d
00000100: 1910 2a3e 8eb2 9cbd 2864 09be 6e1a 2fbe
00000110: e417 b93c c512 a3bd d495 b7bc 7d2e 203e
00000120: 93cf 1a3e cdc2 ddbd cf95 dcbd 6ca6 0cbd
00000130: 58d4 01be af91 9fbd e94d 12bd 9cbd 91bd
00000140: 8eca 15be b3e8 de3c 8f44 f9bb 8ef2 2b3e
00000150: 0f63 323e 6253 7a3c 438f 943d e41c 69bd
00000160: 52bb 1a3e c68f 013e c61c 2fbe 2eeb c2bc
00000170: 6cb2 d83b fbc5 153d 872e 12be e311 023e
00000180: 27b6 cf3b 6acb 92bd 56be 213e 2d4a 0abe
00000190: f6da b33c 1589 c0bd bfb5 e0bd 0efd dcbc
000001a0: f24a 10be 7f22 2a3d 900b 2fbe fbe6 2d3e
000001b0: b452 c33c c3c0 abbd f19f 9a3d 4eb4 e43d
000001c0: 0cc8 05be dfd0 e7bd 2216 bebd 9e1d a6bc
000001d0: eca4 b13b 29d5 e23a 32cb bcbd c173 04be
000001e0: 300c 1ebe c750 083e 31ac 83bd e4b9 d8bd
000001f0: a76d df3c 3a14 bb3d 58b3 c3bd 484f f13d
00000200: 9ef6 16bd 4c77 393e b324 52bd 9be4 e3bd
00000210: c696 9e3c 01a0 0e3e 6ae5 0cbe a3ad 98bd
00000220: 3c8e dbbb 630b 753d d746 babb 08ff 9a3d
00000230: a776 9bbd 52d9 2cbe 5371 883b bfc7 b4bd
00000240: 2974 6fbd fb44 fcbd 834e 893d 4255 cbbd
00000250: 34d0 2e3e 37fd 153c a3ff 9bbd fa98 873c
00000260: 8b99 1dbe 72f4 9e3d d241 c3bd 40b9 cbbd
00000270: fbce 1cbe fca4 11bc d08b 28be eb98 333e
00000280: 8e8d 22bd 03e7 aa3d e19f fcbd 5eab 183e
00000290: b7fb 0d3e aa6b 2e3e b4b5 c53d 6803 66bd
000002a0: 906d 033e 8a3e 1f3e d517 13bc 7c67 cf3d
000002b0: 4b66 29be 08b7 2cbe 4f01 35be b4c8 203e
000002c0: 9bb2 2abe 3859 22bd 2197 30bc e579 c4bc
000002d0: c0fe 3d3d 7b46 03bd 4a34 3ebc a557 8bbd
000002e0: 3f4b f7bd 8f1c 2a3e a95f 8abd 56f5 b63c
000002f0: d19b 32be 9dc9 ae3b c268 27be e1c3 a2bd
00000300: 23f0 f23d f1dc 31bd 3505 b73d d3ba 9cbd
00000310: b24b 513d 922a abbd 6959 1dbe da61 00be
00000320: 7187 24bd a787 b13d d863 6fbd 17c0 e0bd
00000330: 4ebe 6bbc 7b97 c53d 9fa8 913d ca54 b43b
00000340: e112 713d 8681 663c 353e a63b 8662 86bd
00000350: b142 d83d 518e 21be fde4 2f3e e5d3 a9bc
00000360: 7150 a43d 15f0 2c3d 9846 d93b 7e32 86bd
00000370: b06f 873d 92cc 033d a665 86bd c08e a43d
00000380: 89e9 903c ada8 e8bd c023 7b3d a456 2c3e
00000390: ebca d4bd 364b 393e e159 0cbd c08f f6bd
000003a0: e6e8 8dbd 520d 88bd 95ef 67ba 1f6b 0a3d
000003b0: cf34 063d ef67 2f3e 1bcc 5bbd 90bd f93d
000003c0: 9d27 1d3e 68fb 2c3d 2afc 913c b13f 7ebc
000003d0: d059 cdbd 72bf bfbc 771e c53b 664a 6e3d
000003e0: 509d 32be a3e4 d5bd e428 04bd 11b7 e0bd
000003f0: 77d1 0b3e 6a62 02be 75ad 36bd 2aed c63d

conv2.1.bias f4 [32]
0.0848144 -0.00299225 0.023601683 0.00547545 -0.06700166 0.05218396 -0.04066942 -0.028043322
0.13571991 -0.039894085 0.0851947 -0.16476864 -0.13376178 0.114846185 -0.11877203 -0.0136140445
0.12883955 0.035523463 0.1374093 -0.07158913 0.07001904 -0.14056109 0.17703749 -0.16814376
-0.04680729 -0.0025733598 0.12287618 -0.00095903093 0.10230852 0.09980794 0.110118054 -0.15112151
00000000: 2cb3 ad3d a019 44bb 5158 c13c 676b b33b
00000010: 2b38 89bd d9be 553d fa94 26bd 1cbb e5bc
00000020: 29fa 0a3e fb67 23bd 8f7a ae3d 1cb9 28be
00000030: d9f8 08be 7a34 eb3d c03e f3bd 710d 5fbc
00000040: 84ee 033e 0d81 113d 06b5 0c3e 529d 92bd
00000050: 2466 8f3d 3fef 0fbe 5149 353e e12d 2cbe
00000060: 00b9 3fbd d0a5 28bb 82a6 fb3d 7a67 7bba
00000070: 2187 d13d 1b68 cc3d 9385 e13d 99bf 1abe

fc.0.weight f4 [64, 1760]
-0.007458974 0.0017805174 -0.012649467 -0.008627003 -0.013532831 0.01973789 -0.008240571 -0.023808237
-0.003823991 -0.0027340814 0.009297404 -0.017795462 0.011175388 -0.023179712 0.015339278 0.01020281
0.02207855 0.007952601 -0.0069958996 -0.023166493 0.015068018 -0.01363786 0.0093082115 -0.005311037
-0.007381261 -0.0084815845 2.2115704e-05 -0.0059196292 0.005884832 -0.012969345 0.0030328012 -0.014342894
0.01662038 0.003346598 0.023507448 -0.019050758 0.013669126 -0.00413868 0.020167496 -0.009303113
0.0037829846 -0.0009130379 0.013423272 0.01951677 0.02334059 0.0036892167 0.015239528 0.015875049
-0.019017043 0.016798513 -0.016871046 -0.0042861304 0.004346013 -0.004998982 -0.014055165 -0.011318493
-0.00524128 0.016814567 -0.020944 0.01189948 0.015437905 0.008123459 -0.02066235 -0.012851699
-0.008740256 -0.012548567 0.008711064 0.0035798857 -0.02347882 0.0045910417 0.010476411 0.0033585608
0.017427199 -0.002132698 -0.017929051 -0.019263899 -0.021361137 0.020923058 0.00014302322 -0.021163326
0.008029373 -0.0031070362 0.00044110644 -0.0068664276 -0.01170661 0.00022171684 -0.008426194 -0.0028547302
0.013613974 -0.010112233 -0.005788532 -0.0055809407 -0.011515508 0.004408959 0.017812192 0.015570056
-0.001576887 -0.008550987 -0.0015339712 0.013659623 0.014036593 0.009972546 0.0033377865 0.010574725
0.005737569 -0.007015913 0.009639268 0.0018879987 -0.0119163245 -0.01446437 -0.017658435 -0.003911039
-0.016461115 -0.019268831 0.006863765 -0.015131367 0.008153097 0.020880446 -0.008400887 -0.014134135
0.023353579 -0.01654195 -0.018170096 -0.023805572 -0.01765871 -0.0058103097 0.0036317438 -0.009739542
0.013148902 -0.012052866 -0.019454325 -0.02231806 -0.0017050746 -0.0028863652 0.005215669 -0.01360995
-0.017206166 -0.013842899 0.0027501446 0.014718608 0.007768415 0.015289818 0.022652293 0.0066334186
0.00031068546 -0.012629551 -0.0035604807 0.015326621 -0.013937685 -0.013148464 0.019496083 -0.011218002
0.002408151 -0.018397316 0.020660706 -0.0067079747 0.023113469 -0.015513378 -0.0029937925 0.00016799184
0.0066599613 0.013697418 0.0116025675 -0.023509864 -0.023215432 -0.013828933 -0.014346645 0.022561545
0.011311923 -0.015114971 0.015573733 0.014405911 -0.022787469 0.022636747 0.0041704713 0.022319308
-0.008668464 -0.007854528 -0.003627774 0.004235403 -0.018730016 -0.0080453595 -0.0110363765 0.0013971368
-0.021916598 0.00986419 0.021447094 0.0073765465 -0.021678478 -0.0011345672 0.010550581 0.0051518255
-0.0025857985 -0.0071561625 0.015068075 -0.01881402 -0.0014162462 0.0034032357 0.012385363 0.00031966186
-0.004757133 -0.020647796 0.0072559887 0.009546821 0.01797608 0.012528728 0.0014981109 -0.005604622
0.0019358757 -0.016686525 -0.022391085 0.007263604 -0.016953032 -0.016851792 -0.0031239237 -0.007155733
0.00577672 -0.00704682 0.009741066 0.01627386 0.018829353 -0.0012865982 0.020094648 0.013405507
-0.001110991 -0.0232347 -0.021077208 -0.016197432 -0.014091961 0.0008876999 0.0149293 0.0012586118
-0.017874803 0.016650548 -0.011906393 0.017978247 0.023235593 0.01488156 0.0026019868 0.0012339017
-0.009063731 -0.015463981 -0.020862069 -0.0005056577 0.005644233 0.005694642 0.009337528 -0.015647292
0.00101672 -0.021439727 -0.016642766 0.008016499 -0.02053723 -0.006084777 0.016860252 -0.012186697
00000000: 696a f4bb 4060 e93a b63f 4fbc 4658 0dbc
00000010: cfb8 5dbc 5bb1 a13c 7603 07bc 7e09 c3bc
00000020: ec9b 7abb 462e 33bb 2454 183c cac7 91bc
00000030: f918 373c 61e3 bdbc 9851 7b3c b029 273c
00000040: 13de b43c a04b 023c dc3d e5bb a8c7 bdbc
00000050: d9df 763c 5571 5fbc 7881 183c 3508 aebb
00000060: 81de f1bb 58f6 0abc 1d85 b937 73f9 c1bb
00000070: 8cd5 c03b 607d 54bc f6c1 463b 75fe 6abc
00000080: 7727 883c 9952 5b3b b192 c03c 5610 9cbc
00000090: 78f4 5f3c c49d 87bb 4e36 a53c 166c 18bc
000000a0: f3eb 773b f058 6fba 49ed 5b3c a2e1 9f3c
000000b0: c434 bf3c c9c6 713b 37af 793c 640c 823c
000000c0: a1c9 9bbc 099d 893c 2635 8abc ab72 8cbb
000000d0: 0069 8e3b 80ce a3bb a347 66bc 3371 39bc
000000e0: 0bbf abbb b4be 893c c092 abbc 09f6 423c
000000f0: 44ef 7c3c 4218 053c 1744 a9bc ef8f 52bc
00000100: 4a33 0fbc 8198 4dbc dab8 0e3c 849c 6a3b
00000110: a856 c0bc 7370 963b 41a5 2b3c 4d1b 5c3b
00000120: 7cc3 8e3c bcc4 0bbb f2df 92bc 53cf 9dbc
00000130: 8dfd aebc d566 ab3c 81f8 1539 b65e adbc
00000140: a28d 033c 6b9f 4bbb 4e44 e739 c5ff e0bb
00000150: 15cd 3fbc a97c 6839 050e 0abc 6d16 3bbb
00000160: 250d 5f3c c8ad 25bc baad bdbb 53e0 b6bb
00000170: 8bab 3cbc 0779 903b e0ea 913c 8c19 7f3c
00000180: 8caf ceba 7019 0cbc 880f c9ba 9dcc 5f3c
00000190: bdf9 653c e463 233c c4be 5a3b 9d41 2d3c
000001a0: 3802 bc3b bee5 e5bb 05ee 1d3c b976 f73a
000001b0: b03c 43bc f7fb 6cbc 6ca8 90bc 2c28 80bb
000001c0: 76d9 86bc abd9 9dbc 6fe9 e03b 8ee9 77bc
000001d0: 9194 053c 780d ab3c e0a3 09bc dc92 67bc
000001e0: 0150 bf3c fc82 87bc 74d9 94bc e703 c3bc
000001f0: 00a9 90bc 6964 bebb 8d02 6e3b 9a92 1fbc
00000200: 7e6e 573c 6279 45bc ad5e 9fbc 5dd4 b6bc
00000210: cf7c dfba 2c29 3dbb 34e8 aa3b 45fc 5ebc
00000220: f2f3 8cbc 54cd 62bc c53b 343b 5126 713c
00000230: 308e fe3b 2582 7a3c 4d91 b93c 265d d93b
00000240: 7fe3 a239 2dec 4ebc f456 69bb 821c 7b3c
00000250: e35a 64bc a86c 57bc 40b6 9f3c b6cb 37bc
00000260: 12d2 1d3b f8b5 96bc a440 a93c 92ce dbbb
00000270: 7558 bd3c d32b 7ebc 8133 44bb f726 3039
00000280: ce3b da3b 236b 603c b218 3e3c c297 c0bc
00000290: 4a2e bebc c092 62bc 310e 6bbc fdd2 b83c
000002a0: a555 393c c9a4 77bc f828 7f3c c506 6c3c
000002b0: c9ac babc b370 b93c 73a8 883b fbd6 b63c
000002c0: 2c06 0ebc 47b0 00bc f3bf 6dbb 23c9 8a3b
000002d0: b16f 99bc afd0 03bc ebd1 34bc 2220 b73a
000002e0: 708a b3bc 699d 213c d1b1 af3c f5b6 f13b
000002f0: 1097 b1bc c2b5 94ba 58dc 2c3c a5d0 a83b
00000300: 8076 29bb 3e7e eabb 16e0 763c dc1f 9abc
00000310: 56a1 b9ba d208 5f3b faeb 4a3c 4a98 a739
00000320: b9e1 9bbb 9125 a9bc a5c3 ed3b 456a 1c3c
00000330: 9242 933c 4b45 4d3c 435c c43a faa6 b7bb
00000340: 36bd fd3a 2eb2 88bc 826d b7bc 8703 ee3b
00000350: 16e1 8abc c50c 8abc beba 4cbb a47a eabb
00000360: a44a bd3b 03e9 e6bb fe98 1f3c c250 853c
00000370: 0440 9a3c 12a3 a8ba 889d a43c c6a2 5b3c
00000380: ac9e 91ba b356 bebc 1caa acbc 7ab0 84bc
00000390: f8e1 66bc 88b4 683a 069a 743c 01f8 a43a
000003a0: 2e6e 92bc bb66 883c 0813 43bc 1e47 933c
000003b0: 9258 be3c c9d1 733c 1886 2a3b dfba a13a
000003c0: 0b80 14bc a35c 7dbc eee6 aabc 1d8e 04ba
000003d0: 42f3 b83b 1f9a ba3b 6efc 183c c02e 80bc
000003e0: 7643 853a 5ea2 afbc 6956 88bc a257 033c
000003f0: b13d a8bc cf62 c7bb 831e 8a3c b6aa 47bc

fc.0.bias f4 [64]
0.02127375 -0.0031876722 -0.027040623 -0.015944567 -0.0056250375 -0.026457341 -0.010069516 -0.009677933
0.013503864 -0.0030025926 -0.0023115536 0.00355199 -0.0106564285 -0.014070187 0.017353935 0.011158298
0.0023551648 0.007295994 -0.006709627 0.017594377 0.026197625 -0.006635246 0.011892237 0.013476289
0.022548053 0.0047892136 -0.012729132 0.022673892 0.016243001 0.0025960251 0.007030829 0.007204734
-0.010444857 -0.013574951 0.00090508297 0.004191274 0.009718211 0.00055115303 0.006831417 -0.017363336
-0.0003533102 -0.00634126 -0.008968645 -0.010975014 0.014686722 -0.006771413 -0.008789492 -0.011053966
-0.0049510533 0.006058239 -0.023644343 -0.020179708 0.019815596 0.017865222 0.0013560917 0.0034517038
0.015397134 -0.027864488 0.019022385 0.020649916 -0.009662304 0.0064357896 -0.018139495 -0.009668425
00000000: 4a46 ae3c 44e8 50bb 4c84 ddbc 2e9e 82bc
00000010: 3c52 b8bb 11bd d8bc 9cfa 24bc 3190 1ebc
00000020: 503f 5d3c 25c7 44bb 6f7d 17bb 81c8 683b
00000030: 4d98 2ebc a486 66bc d729 8e3c 4bd1 363c
00000040: 1c59 1a3b 3c13 ef3b 6edc dbbb 1522 903c
00000050: 679c d63c 7a6c d9bb a8d7 423c a7cb 5c3c
00000060: b2b6 b83c d6ee 9c3b d98d 50bc 99be b93c
00000070: 0b10 853c 1322 2a3b de62 e63b b015 ec3b
00000080: e820 2bbc 7969 5ebc 1743 6d3a f456 893b
00000090: 2239 1f3c 417b 103a 14da df3b 8e3d 8ebc
000000a0: 7e3c b9b9 58ca cfbb 39f1 12bc 8cd0 33bc
000000b0: 94a0 703c bbe2 ddbb cd01 10bc b21b 35bc
000000c0: 723c a2bb 3184 c63b c8b1 c1bc ea4f a5bc
000000d0: 5154 a23c 165a 923c e3be b13a fb35 623b
000000e0: 4344 7c3c 1144 e4bc d5d4 9b3c 032a a93c
000000f0: a44e 1ebc 51e3 d23b 4799 94bc 5068 1ebc

fc.2.weight f4 [9, 64]
-0.050807163 0.034602147 0.032526385 0.08446807 0.062499624 0.021557419 -0.12548052 -0.08552716
0.00075924397 -0.10623483 0.08389297 -0.076976545 0.06187333 0.107107185 0.025015416 0.08966096
-0.07183865 0.08393642 -0.016565507 0.032304466 -0.104147434 0.11839159 -0.10740036 0.036079984
0.038195893 0.025005994 -0.11410955 0.06542756 0.11238189 0.023006648 -0.07163853 0.007611599
0.12910369 -0.056471244 0.03900923 0.026429132 0.08246282 -0.040681064 0.04479421 -0.016137857
0.015790625 0.048477117 0.009296016 -0.04683722 -0.024541713 -0.0048761847 0.13039365 -0.07396751
0.10281872 0.11977855 -0.0879774 -0.052884933 -0.06148857 -0.012444115 -0.03905087 0.037811577
-0.09027413 -0.042333547 0.057755977 0.06125305 0.0021027774 0.053544283 0.018579708 0.009339764
0.08527368 -0.075723514 0.08380102 0.052753706 0.029884152 0.041924525 0.1177022 -0.04025577
-0.10814987 -0.030899897 -0.10304333 -0.045861345 -0.017042965 -0.117771916 0.088523075 0.0021020174
0.08246368 0.12544917 -0.042732306 0.08916055 -0.038643815 0.036934003 -0.11471921 0.050010044
-0.055480823 0.09263271 -0.031861532 0.10177767 0.06630917 -0.036223367 -0.047724154 -0.11073062
0.121289484 -0.090819195 -0.011520232 0.05564452 -0.11511369 0.07289128 0.019773636 -0.015916245
0.09168947 0.025683403 -0.11493437 -0.091538556 -0.00081491366 0.091642976 -0.0524422 0.10714867
0.014230008 -0.024187502 -0.03763648 0.0036949783 0.079509094 0.027632153 0.07994843 -0.043805778
-0.06528511 0.035685766 0.058152094 0.009955063 0.05340603 -0.03359139 0.08378562 0.046908792
-0.096064985 0.0013122321 0.119903825 0.03477647 0.11845211 0.037196036 -0.076519184 -0.0046473388
0.10090357 0.07299015 -0.11136649 0.053574186 0.076220095 0.062221184 -0.11894887 -0.042939976
0.028477274 0.108055204 -0.05519907 0.1196188 -0.046964575 0.025058478 0.010677084 0.09359858
-0.026997939 0.066605374 0.07068686 0.042814896 0.08628981 -0.032032847 -0.027430413 0.0006787658
-0.08902629 -0.057146773 -0.040088374 0.025859011 0.09265366 0.10090657 -0.008066993 0.11146503
0.061856978 0.10038348 -0.040098272 -0.036068078 -0.043639205 -0.12409871 -0.042776305 0.06606103
-0.10048304 0.0046107657 -0.0765135 -0.0464826 0.07399805 -0.12930402 -0.092039324 0.044599146
0.0054217135 0.07311793 -0.113720596 -0.10085404 -0.039146364 -0.099243686 -0.0040302593 0.048636187
0.000255391 0.032476705 -0.061840095 -0.0649179 -0.0012289566 0.06030409 0.04427461 0.035068233
0.10718745 -0.051774994 0.027593818 -0.04965935 -0.02963169 -0.06082874 0.090559565 -0.021946564
0.04519346 0.086767845 -0.00984931 -0.03591302 -0.07338234 -0.09274292 0.101587564 -0.091093846
0.016832784 0.031981785 0.01405728 0.0878901 -0.11793527 -0.027374163 0.023997493 -0.026779706
-0.07871118 0.0014909953 -0.08190253 0.120263055 -0.021532223 -0.020906627 -0.04087481 -0.10624672
-0.04631701 -0.067880824 -0.030373935 0.09011923 0.057984624 0.010869107 0.06037817 0.030612772
-0.109704 0.05039162 0.053463455 0.10210054 -0.11910644 -0.09540259 0.052452303 0.050278634
0.014269326 0.03668414 0.12192269 -0.07350253 0.07132974 -0.06863567 0.049787227 -0.03543233
00000000: 2c1b 50bd fbba 0d3d 633a 053d 98fd ac3d
00000010: 9bff 7f3d 2f99 b03c f77d 00be dd28 afbd
00000020: 0008 473a a691 d9bd 14d0 ab3d e1a5 9dbd
00000030: e46e 7d3d 035b db3d 21ed cc3c 2aa0 b73d
00000040: 2420 93bd dce6 ab3d 63b4 87bc b051 043d
00000050: 404b d5bd 4a77 f23d b8f4 dbbd 9bc8 133d
00000060: 4c73 1c3d 5fd9 cc3c 45b2 e9bd e2fe 853d
00000070: 7a28 e63d 7078 bc3c 39b7 92bd b86a f93b
00000080: c233 043e 644e 67bd 24c8 1f3d e881 d83c
00000090: 44e2 a83d 30a1 26bd 227a 373d 8a33 84bc
000000a0: 575b 813c f18f 463d 514e 183c 63d8 3fbd
000000b0: b40b c9bc 67c8 9fbb ea85 053e 477c 97bd
000000c0: 9f92 d23d 754e f53d 7f2d b4bd df9d 58bd
000000d0: 70db 7bbd 67e2 4bbc cef3 1fbd 50e0 1a3d
000000e0: a5e1 b8bd f165 2dbd 8891 6c3d 7ae4 7a3d
000000f0: c0ce 093b 4051 5b3d 7934 983c cf05 193c
00000100: f8a3 ae3d ee14 9bbd df9f ab3d 4514 583d
00000110: 9ccf f43c 0db9 2b3d da0d f13d 3ce3 24bd
00000120: ae7d ddbd c821 fdbc 6208 d3bd 1bd9 3bbd
00000130: b09d 8bbc 6732 f1bd 964b b53d 00c2 093b
00000140: b8e2 a83d bf75 003e 1208 2fbd ce99 b63d
00000150: fa48 1ebd 1c48 173d e8f1 eabd 55d7 4c3d
00000160: dc3f 63bd 38b6 bd3d 3d81 02bd d070 d03d
00000170: 1acd 873d f45e 14bd 677a 43bd bcc6 e2bd
00000180: 9f66 f83d 6aff b9bd 5bbf 3cbc 82eb 633d
00000190: bac0 ebbd 0648 953d 52fc a13c c962 82bc
000001a0: b0c7 bb3d 0066 d23c b662 ebbd 9178 bbbd
000001b0: ee9f 55ba 50af bb3d a2cd 56bd c370 db3d
000001c0: fb24 693c de24 c6bc b628 1abd 7327 723b
000001d0: aad5 a23d d35c e23c 01bc a33d b06d 33bd
000001e0: 33b4 85bd 3d2b 123d e430 6e3d 901a 233c
000001f0: 48c0 5a3d 2097 09bd cc97 ab3d 6f23 403d
00000200: b8bd c4bd 34ff ab3a 2390 f53d c671 0e3d
00000210: 0597 f23d df5a 183d 17b6 9cbd b448 98bb
00000220: 88a6 ce3d dc7b 953d 1d14 e4bd 9b70 5b3d
00000230: 4819 9c3d a4db 7e3d 779b f3bd d4e1 2fbd
00000240: 2c49 e93c 0c4c dd3d 6c18 62bd b4fa f43d
00000250: ed5d 40bd 7047 cd3c f0ee 2e3c 9db0 bf3d
00000260: c82a ddbc 6668 883d 46c4 903d ac5e 2f3d
00000270: b6b8 b03d e034 03bd bfb5 e0bc 34ef 313a
00000280: 6a53 b6bd bc12 6abd b533 24bd 47d6 d33c
00000290: 34c1 bd3d 1ba8 ce3d 6c2b 04bc c747 e43d
000002a0: be5d 7d3d db95 cd3d 163e 24bd 1fbc 13bd
000002b0: 06bf 32bd 7727 febd 3536 2fbd 014b 873d
000002c0: 0dca cdbd e815 973b 1cb3 9cbd 8a64 3ebd
000002d0: 4a8c 973d 4668 04be 1d7f bcbd 98ad 363d
000002e0: a1a8 b13b dabe 953d 58e6 e8bd 908c cebd
000002f0: f057 20bd 4640 cbbd 4410 84bb bd36 473d
00000300: 00e6 8539 4b06 053d 0a4c 7dbd adf3 84bd
00000310: f114 a1ba 6c01 773d 4b59 353d b5a3 0f3d
00000320: 1885 db3d 0412 54bd 6e0c e23c 9a67 4bbd
00000330: 28be f2bc 8f27 79bd 4b77 b93d 48c9 b3bc
00000340: c71c 393d 57b3 b13d 005f 21bc 8819 13bd
00000350: 7b49 96bd 00f0 bdbd 240d d03d 698f babd
00000360: e8e4 893c 55ff 023d 8150 663c baff b33d
00000370: 0c88 f1bd c83f e0bc 6496 c43c 1d61 dbbc
00000380: 5433 a1bd 806d c33a 83bc a7bd 7a4c f63d
00000390: 5864 b0bc 6044 abbc 586c 27bd e197 d9bd
000003a0: e8b6 3dbd 1a05 8bbd c2d2 f8bc 6e90 b83d
000003b0: 4981 6d3d 5714 323c 1a4f 773d a3c7 fa3c
000003c0: 7eac e0bd 7167 4e3d 7ffc 5a3d 171a d13d
000003d0: 14ee f3bd 6f62 c3bd 3ad8 563d f8f0 4d3d
000003e0: e4c9 693c 1c42 163d 9ab2 f93d 7f88 96bd
000003f0: 5415 923d dc90 8cbd b1ed 4b3d 7e21 11bd

fc.2.bias f4 [9]
-0.02800637 -0.10450702 -0.08067706 0.11031539 0.11932723 -0.013590244 -0.10524591 -0.11948591
0.059536304
00000000: 9d6d e5bc c707 d6bd 043a a5bd 09ed e13d
00000010: d661 f43d 9da9 5ebc 2b8b d7bd 07b5 f4bd
00000020: 57dc 733d
