log/U2Net_Heuristic_separable_conv_regressor_weights.pt (torch, 185249 bytes, 11 tensors)

depthwise.weight f4 [1, 1, 3]
0.46499887 -0.25999865 -0.15212783
00000000: 5514 ee3e 8b1e 85be 66c7 1bbe

pointwise.weight f4 [16, 1, 1]
0.6776279 -0.5579764 0.78085506 -0.70637417 -0.3259005 0.78316736 0.67371124 0.8403213
-0.5470993 -0.6017371 -0.9749377 -0.8788118 -0.6857251 0.20099576 0.90651643 -0.38084814
00000000: 0679 2d3f 8bd7 0ebf 1ee6 473f f0d4 34bf
00000010: 6edc a6be a87d 483f 5778 2c3f 4c1f 573f
00000020: b30e 0cbf 710b 1abf 8495 79bf cff9 60bf
00000030: ae8b 2fbf d5d1 4d3e 7611 683f 87fe c2be

pointwise.bias f4 [16]
0.8902922 0.119152576 0.42556003 -0.22050585 0.67640406 -0.6129449 0.8234709 -0.49091792
0.5295464 -0.6427673 0.9691302 0.48674658 0.94748336 -0.116463065 0.6572231 0.18371826
00000000: 31ea 633f 4406 f43d 01e3 d93e 49cc 61be
00000010: d128 2d3f f5e9 1cbf fdce 523f 9859 fbbe
00000020: 5a90 073f 668c 24bf eb18 783f d936 f93e
00000030: 458e 723f 3084 eebd c63f 283f a420 3c3e

conv2.0.weight f4 [32, 1, 3]
-0.00497695 -0.42614764 0.27240694 -0.32973444 0.4365473 -0.29228595 0.0764818 0.50492996
-0.5665022 -0.5189851 -0.24090081 0.02107752 -0.3073598 0.20050731 -0.10655274 0.41959223
0.46177486 -0.023082023 -0.19291939 0.10977998 -0.20651191 -0.038361244 -0.25157958 0.015344486
-0.21562447 -0.16765678 -0.21791793 0.55548745 0.30124402 -0.09630848 -0.16123806 0.3513328
-0.2609051 -0.07344084 0.4471848 -0.12985319 -0.14520979 -0.15200195 0.39229333 0.37408796
-0.18996392 -0.54919165 -0.4076831 0.46566716 -0.39109462 0.029024536 0.15115733 -0.33251897
0.4804543 -0.1573561 0.5307807 -0.37190485 -0.27879786 0.57534593 -0.16098973 0.18518327
-0.33167124 0.4619733 0.50878084 -0.04121721 0.25655788 0.39539406 0.28848982 -0.45598376
-0.50134027 -0.43126687 -0.051678088 0.52778834 0.42354652 0.30393806 -0.31750616 -0.4550659
-0.056526713 -0.14135215 0.3889587 -0.48702726 0.121557444 -0.40851343 0.42960212 0.05622869
-0.09309466 -0.2207966 0.35143462 -0.21792372 0.18592471 0.5493392 0.010782182 0.5724964
-0.16672808 0.37816927 0.33181575 0.14263418 0.5631887 0.37003547 -0.17701378 -0.552451
00000000: af15 a3bb 0630 dabe ec78 8b3e f4d2 a8be
00000010: 2183 df3e 81a6 95be 7da2 9c3d 1743 013f
00000020: 4a06 11bf 35dc 04bf b4ae 76be c3aa ac3c
00000030: 445e 9dbe ca51 4d3e 5338 dabd cbd4 d63e
00000040: c16d ec3e 8316 bdbc a98c 45be 53d4 e03d
00000050: dc77 53be ae20 1dbd 0acf 80be 7067 7b3c
00000060: a9cc 5cbe 38ae 2bbe e125 5fbe 6d34 0e3f
00000070: a83c 9a3e 613d c5bd 971b 25be e5e1 b33e
00000080: 5a95 85be 2768 96bd 68f5 e43e 3cf8 04be
00000090: e0b1 14be 66a6 1bbe acda c83e 7588 bf3e
000000a0: e785 42be d397 0cbf d7bb d0be ed6b ee3e
000000b0: 8e3d c8be ddc4 ed3c fdc8 1a3e ed3f aabe
000000c0: 1bfe f53e f521 21be 3ee1 073f 506a bebe
000000d0: 98be 8ebe df49 133f 7eda 24be afa0 3d3e
000000e0: d0d0 a9be c487 ec3e 763f 023f 61d3 28bd
000000f0: 8e5b 833e 1771 ca3e f0b4 933e b476 e9be
00000100: d657 00bf 03cf dcbe 67ac 53bd 231d 073f
00000110: 17db d83e c59d 9b3e 2b90 a2be 66fe e8be
00000120: 8e88 67bd 9ebe 10be 9825 c73e a35b f9be
00000130: 1cf3 f83d ac28 d1be cff4 db3e 0e50 663d
00000140: 6aa8 bebd 8118 62be 3def b33e 6527 5fbe
00000150: 0c63 3e3e 7ea1 0c3f c0a7 303c 208f 123f
00000160: c4ba 2abe 679f c13e c1e3 a93e b20e 123e
00000170: 222d 103f 4a75 bd3e 1a43 35be 6e6d 0dbf

conv2.0.bias f4 [32]
0.033436574 0.4320745 0.0076034307 0.41066775 0.4156322 -0.48014057 0.008646048 0.37156358
-0.10684777 -0.51770175 0.31454703 0.39916623 -0.3766445 -0.43926433 0.28569213 0.5519525
0.57385135 -0.43559286 0.011968645 -0.43855837 -0.32773584 0.13830148 0.09715229 -0.016997917
0.55385965 0.56781363 0.47645533 0.06301083 -0.21872702 0.035840347 0.10960724 -0.35153452
00000000: caf4 083d de38 dd3e 3326 f93b 0b43 d23e
00000010: becd d43e fcd4 f5be 27a8 0d3c 953d be3e
00000020: 01d3 dabd 1a88 04bf 4f0c a13e 845f cc3e
00000030: 8cd7 c0be 41e7 e0be 3d46 923e c24c 0d3f
00000040: ece7 123f 0706 dfbe 2318 443c b98a e0be
00000050: fecc a7be e79e 0d3e c8f7 c63d 373f 8bbc
00000060: bfc9 0d3f 3c5c 113f f4f1 f33e d20b 813d
00000070: faf9 5fbe 54cd 123d c379 e03d 55fc b3be

conv2.1.weight f4 [32, 32, 1]
0.052396018 0.09883931 -0.054693326 -0.05541725 0.06898063 0.13799368 0.16770785 0.02712721
-0.063736394 0.10676656 -0.16831683 -0.018829359 -0.13099493 -0.062160905 0.03354865 0.09735459
0.10367473 0.14392358 0.05932435 0.06000925 0.08918214 -0.116107166 -0.08448766 0.01728514
0.13990596 0.13641432 -0.14692223 0.08508193 -0.067979015 -0.10002608 0.017170195 0.006447795
-0.041973826 -0.074520655 0.13984661 0.121077634 0.08752077 0.08021457 0.12506972 0.097812496
0.08959787 -0.06999081 -0.11295667 -0.07616927 0.13365167 0.07550146 -0.037607454 -0.09854018
0.07178991 -0.15151247 -0.116678394 -0.06633275 -0.042792946 0.07360093 0.016792074 -0.01166247
0.16788983 0.08348606 -0.1736824 -0.09186669 0.16929306 -0.1748449 -0.06757399 -0.019303318
-0.08866637 0.08363534 -0.17106792 -0.043810297 -0.03468978 -0.07696317 -0.062336084 -0.13009782
-0.04631259 0.01380988 -0.044516474 -0.035961606 0.10647065 0.0026289255 -0.0019943388 0.17715786
-0.1339259 0.100390665 -0.12207438 0.16192119 0.0671517 0.090695664 0.16473138 0.049531184
0.03297395 -0.09445245 0.036409866 0.13862115 -0.102459654 -0.057423443 0.11813947 -0.17319885
0.008829877 0.04749257 0.17426528 -0.13279304 -0.09064759 -0.11943736 0.016977092 0.07920094
0.15362088 0.16368641 0.12337395 -0.13440508 -0.1083079 0.16667552 0.09138733 0.07837983
-0.14071304 -0.009639714 0.08095806 0.019682989 -0.1520905 -0.06361376 -0.09479438 -0.0625557
0.11140016 0.14335348 -0.04161035 -0.14575481 -0.09238941 0.08481714 -0.16155574 0.017850226
-0.07632659 0.13273124 0.16678655 -0.0088348575 -0.14956413 -0.13750958 0.049137305 0.13847885
0.07358757 0.15080121 0.05917531 -0.05604382 -0.15362519 0.12530641 -0.010914447 -0.1309513
0.086757116 0.065983035 0.1200144 0.10771526 0.119996116 0.06932917 0.0479426 -0.022628305
-0.053787697 0.019437676 0.031486157 0.07251742 -0.17016737 0.15403706 0.043577988 0.12211767
-0.100153886 -0.09875898 -0.013775663 -0.12305998 -0.043075945 0.11599555 -0.045383103 0.09322485
-0.02671398 -0.07512797 0.08011304 -0.09340581 -0.019911094 -0.033758964 -0.034655344 -0.09201654
-0.17481428 0.1442522 -0.12490539 -0.022137607 0.15370649 -0.13621259 -0.06764702 -0.122449555
-0.12137451 0.12440313 -0.11491001 0.1359492 0.133246 -0.16874088 0.036494896 0.050114937
0.024834841 0.09224841 -0.15168554 -0.07530985 0.0022170744 -0.022377288 0.16228987 -0.16122983
0.101002656 -0.15469804 -0.00032059912 -0.097708836 0.09958 0.07220408 -0.011411179 -0.075822376
-0.044125598 -0.00093168876 -0.07753183 -0.01620956 0.16410702 -0.012518468 -0.08588427 -0.12654187
0.08320884 -0.14467956 0.044353288 -0.07107116 -0.14666677 -0.07365692 -0.08090858 0.14025804
-0.039404035 0.09878435 0.063433535 -0.020783352 -0.13097335 -0.09518296 0.110733375 -0.020852614
0.09654079 -0.057524472 -0.054164384 0.13243787 -0.1255082 0.058751382 -0.005238188 -0.15813458
-0.059023272 -0.04468379 -0.17503975 -0.110523716 0.173859 -0.076820716 0.104288064 0.09549761
-0.15399484 0.16093403 -0.14539617 0.08982568 -0.16872208 0.15711375 -0.10397011 0.11855167
00000000: 359d 563d 446c ca3d 1c06 60bd 33fd 62bd
00000010: b745 8d3d 374e 0d3e 9bbb 2b3e e239 de3c
00000020: 3a88 82bd 6da8 da3d 3f5b 2cbe 0740 9abc
00000030: 8923 06be 6f9c 7ebd 4f6a 093d d861 c73d
00000040: 6b53 d43d b460 133e 17fe 723d 42cc 753d
00000050: 20a5 b63d 98c9 edbd de07 adbd 9199 8d3c
00000060: 8243 0f3e 32b0 0b3e c872 16be 6f3f ae3d
00000070: 9538 8bbd 79da ccbd 82a8 8c3c 0648 d33b
00000080: bfec 2bbd 499e 98bd f333 0f3e 8df7 f73d
00000090: 173e b33d 8947 a43d 4712 003e eb51 c83d
000000a0: 177f b73d 5757 8fbd d455 e7bd a2fe 9bbd
000000b0: fcdb 083e 82a0 9a3d 460a 1abd 6fcf c9bd
000000c0: 9706 933d 1626 1bbe 15f5 eebd 77d9 87bd
000000d0: a847 2fbd 16bc 963d 888f 893c f213 3fbc
000000e0: 50eb 2b3e bdfa aa3d cdd9 31be 9a24 bcbd
000000f0: 295b 2d3e 8b0a 33be 3b64 8abd fe21 9ebc
00000100: b796 b5bd 0149 ab3d 6e2c 2fbe 6d72 33bd
00000110: df16 0ebd de9e 9dbd 1f54 7fbd 5d38 05be
00000120: 45b2 3dbd d642 623c e856 36bd 7a4c 13bd
00000130: 490d da3d 0d4a 2c3b 74b3 02bb df68 353e
00000140: df23 09be 9f99 cd3d 2202 fabd abce 253e
00000150: d586 893d a6be b93d 58af 283e 36e1 4a3d
00000160: b10f 073d 4970 c1bd 8322 153d b4f2 0d3e
00000170: 5ed6 d1bd d834 6bbd 1bf3 f13d 0a5b 31be
00000180: 30ab 103c 9287 423d 9972 323e e6fa 07be
00000190: 72a5 b9bd 939b f4bd 8b13 8b3c 1a34 a23d
000001a0: cb4e 1d3e 699d 273e 7bab fc3d 7ca1 09be
000001b0: 88d0 ddbd fdac 2a3e 4829 bb3d 9b85 a03d
000001c0: 1417 10be e4ef 1dbc 57cd a53d 383e a13c
000001d0: 9dbd 1bbe ee47 82bd 8e23 c2bd 341d 80bd
000001e0: c425 e43d 41cb 123e 9d6f 2abd c040 15be
000001f0: a936 bdbd 9cb4 ad3d de6e 25be a33a 923c
00000200: 1d51 9cbd b3ea 073e 18ca 2a3e 14c0 10bc
00000210: 5727 19be 50cf 0cbe 3344 493d 66cd 0d3e
00000220: 14b5 963d a26b 1a3e cf61 723d 348e 65bd
00000230: ec4f 1dbe 5350 003e 82d2 32bc 1918 06be
00000240: b7ad b13d 1d22 873d 1cca f53d d199 dc3d
00000250: 86c0 f53d 74fc 8d3d 765f 443d ff5e b9bc
00000260: 7d50 5cbd c33b 9f3c a1f7 003d 0384 943d
00000270: 5b40 2ebe e4bb 1d3e d57e 323d d418 fa3d
00000280: 7b1d cdbd 2642 cabd 52b3 61bc df06 fcbd
00000290: 6770 30bd 138f ed3d a2e3 39bd acec be3d
000002a0: 47d7 dabc b1dc 99bd 4e12 a43d 8c4b bfbd
000002b0: 971c a3bc d746 0abd c3f2 0dbd 2b73 bcbd
000002c0: 8402 33be d9b6 133e 66ce ffbd ed59 b5bc
000002d0: 3c65 1d3e 507b 0bbe 858a 8abd d5c6 fabd
000002e0: 3393 f8bd 11c7 fe3d f055 ebbd 4436 0b3e
000002f0: a471 083e 69ca 2cbe ac7b 153d 5245 4d3d
00000300: 7072 cb3c bcec bc3d 7453 1bbe 0d3c 9abd
00000310: 564c 113b 9350 b7bc 512f 263e 6f19 25be
00000320: 7bda ce3d 2a69 1ebe 1616 a8b9 921b c8bd
00000330: 99f0 cb3d bcdf 933d f4f5 3abc c348 9bbd
00000340: 0bbd 34bd 933c 74ba 02c9 9ebd e9c9 84bc
00000350: ac0b 283e 431a 4dbc 18e4 afbd 3194 01be
00000360: 6569 aa3d e126 14be cbab 353d c28d 91bd
00000370: d02f 16be 70d9 96bd 66b3 a5bd ce9f 0f3e
00000380: 2066 21bd 734f ca3d 71e9 813d d941 aabc
00000390: e11d 06be 49ef c2bd 2ec8 e23d 1ad3 aabc
000003a0: 2db7 c53d c89e 6bbd 79db 5dbd cb9d 073e
000003b0: 3985 00be 4aa5 703d 1ba5 abbb 08ee 21be
000003c0: 63c2 71bd 5a06 37bd 9f3d 33be 425a e2bd
000003d0: 1808 323e 2e54 9dbd fb94 d53d 4094 c33d
000003e0: d3b0 1dbe e4cb 243e bce2 14be 87f6 b73d
000003f0: 7bc5 2cbe 6de2 203e 48ee d4bd 38cb f23d

conv2.1.bias f4 [32]
-0.12803414 -0.1798887 0.16244102 -0.11387337 0.15388957 0.043947294 0.17651516 0.10138581
0.15843031 0.014651346 0.02622955 -0.1554726 0.115548894 -0.10108644 -0.1317331 -0.13747467
-0.17903595 -0.021151487 0.07197604 0.17458892 0.16844605 0.14937001 -0.04077326 0.12504596
-0.13534187 0.015382823 -0.16439536 -0.016704945 -0.07922633 -0.17004295 0.08565136 0.07664012
00000000: 621b 03be be34 38be f056 263e 7136 e9bd
00000010: 3a95 1d3e 1402 343d 64c0 343e 5da3 cf3d
00000020: 8e3b 223e 330c 703c 5adf d63c 3634 1fbe
00000030: e6a4 ec3d 6806 cfbd 0be5 06be 29c6 0cbe
00000040: 3355 37be e245 adbc 2d68 933d 70c7 323e
00000050: 1f7d 2c3e 74f4 183e dd01 27bd 0c0c 003e
00000060: 0f97 0abe 3c08 7c3c 4257 28be cfd8 88bc
00000070: 6a41 a2bd bd1f 2ebe fb69 af3d 7ff5 9c3d

fc.0.weight f4 [64, 672]
-0.025424184 -0.013796407 -0.003158768 0.01340943 0.024500776 -0.0029800343 0.022459347 -0.01620547
-0.02517603 -0.025059523 0.025160285 -0.0014918635 -0.016353875 -0.0015018195 -0.019701205 0.0099027
0.009632445 0.011753282 -0.014059691 -0.012955047 0.008279123 0.012039306 -0.02986332 0.008869667
0.034089647 -0.0053609908 0.030265601 0.013202047 -0.023807017 -0.027044991 0.00037531002 0.02680151
0.0046162386 -0.00433709 -0.01806805 -0.016755605 -0.025120337 0.03419351 -0.016267799 0.022135565
0.004586596 0.011455182 -0.0030150802 -0.020743348 0.010828168 -0.031106189 0.006392553 -0.018149974
0.021691082 0.031362824 0.031064963 0.014795631 -0.031306468 0.010257537 0.0062848264 -0.030928748
0.012951985 0.011105394 0.013737995 0.03050202 0.012178298 -0.002292714 0.0016859381 0.007233724
0.008303491 -0.0151517745 -0.037973482 0.01598546 0.035076443 0.01906184 0.006074031 -0.021654036
-0.011125238 -0.009395534 -0.02921548 0.0011186275 0.008080694 -0.02270304 0.007469908 0.013221628
0.00968159 0.024272226 0.0031940532 -0.005510928 0.008513564 -9.2891685e-07 0.004376785 0.019231638
0.020303106 0.019131048 0.035761565 0.01932562 0.009353604 -0.027559621 0.024923148 0.0009686074
-0.03140269 0.025022013 0.034405466 -0.026801165 -0.031259034 0.005997814 0.005115343 -0.026153756
0.03346404 0.023384305 -0.0066039553 -0.0024622874 -0.009549698 0.03163067 -0.0031540776 0.023272114
0.028750217 0.003010822 -0.005244651 0.020920344 -0.019641625 0.035633404 0.00030239002 0.021937944
0.018662354 -0.0074255867 0.031299572 0.031315416 0.023337068 -0.029871622 0.033288687 -0.023206253
-0.005397416 0.01884089 -0.01675881 0.034130044 0.036531046 -0.013890301 -0.002842173 -0.013550653
0.02774179 0.018165788 -0.023947045 -0.019168453 -0.008159496 -0.0099563515 -0.0058639213 0.014992019
-0.037407257 -0.032926228 0.011499333 0.037230767 0.022936076 0.008567593 -0.017153444 0.0014222224
-0.03322042 -0.022356302 -0.006033458 -0.027110724 -0.032672044 0.01597536 -0.030501762 -0.0086091645
0.03330687 -0.03830718 -0.03234659 -0.03155947 -0.013266841 -0.037786208 -0.035693243 0.004124483
0.01309805 0.00133243 0.023668332 -0.017907536 0.009831831 -0.031508666 0.018285375 0.038237162
-0.014791465 0.013103987 -0.0046249162 -0.009479142 -0.028049123 0.029674442 -0.010444374 -0.0020591742
0.0022142066 0.0049341535 0.008186793 0.01975872 -0.0060591316 -0.023325494 0.007372804 -0.012294849
0.031877954 -0.0222913 -0.026102021 -0.0062616817 0.028459217 -0.008549806 0.025323538 0.02432292
0.030852083 0.021169804 -0.008497791 -0.025708359 0.016268985 0.015846126 -0.015621209 0.036080487
0.0029407209 0.032347675 -0.015059095 -0.032680403 0.017042838 -0.022908699 -0.009122562 0.038125526
-0.014229967 0.0019830675 -0.005298436 -0.007617105 0.030034302 -0.021937815 -0.01901366 0.011856286
-0.036637902 0.012912552 -0.023515351 -0.013317523 -0.0035486189 0.026662853 -0.01710302 0.003163491
0.008791449 0.004063786 -0.005681026 0.0012813074 0.02643274 0.0320008 -0.02646234 0.010894654
-0.0015079586 -0.015007355 0.026664283 -0.031756938 0.029105201 0.030701015 0.013995011 0.0008684775
-0.010311387 0.0023209678 -0.015234618 0.017414454 0.011363555 0.011585989 -0.00703976 0.021421434
00000000: 6146 d0bc 530a 62bc 5503 4fbb 3ab3 5b3c
00000010: dab5 c83c ae4c 43bb aafc b73c 55c1 84bc
00000020: f63d cebc a149 cdbc f11c ce3c a28a c3ba
00000030: 90f8 85bc b3d8 c4ba 6c64 a1bc ef3e 223c
00000040: 67d1 1d3c d690 403c 9e5a 66bc 6841 54bc
00000050: 29a5 073c 8240 453c eca3 f4bc 1452 113c
00000060: 96a1 0b3d 40ab afbb 91ef f73c 664d 583c
00000070: ef06 c3bc 758d ddbc 42c5 c439 d78e db3c
00000080: d143 973b 261e 8ebb 7203 94bc 0d43 89bc
00000090: 2ac9 cdbc 7e0e 0c3d 0c44 85bc a555 b53c
000000a0: 284b 963b 84ae 3b3c a798 45bb f4ed a9bc
000000b0: a168 313c 68d2 febc 9f78 d13b 41af 94bc
000000c0: 7fb1 b13c 4e76 003d f37b fe3c 6069 723c
000000d0: 363b 00bd 3a0f 283c f2f0 cd3b 495e fdbc
000000e0: 9034 543c 66f3 353c 5415 613c 5fdf f93c
000000f0: 7c87 473c 5c41 16bb b2fa dc3a e008 ed3b
00000100: 5e0b 083c 263f 78bc 158a 1bbd f0f3 823c
00000110: 51ac 0f3d 9327 9c3c aa08 c73b ce63 b1bc
00000120: a146 36bc baef 19bc 4d55 efbc e99e 923a
00000130: e364 043c bafb b9bc 21c6 f43b 879f 583c
00000140: 889f 1e3c 8cd6 c63c 5253 513b 0495 b4bb
00000150: 7a7c 0b3c ae5a 79b5 226b 8f3b ab8b 9d3c
00000160: b352 a63c b7b8 9c3c b87a 123d c350 9e3c
00000170: dc3f 193c b7c4 e1bc a12b cc3c 24ea 7d3a
00000180: 1ba0 00bd f7fa cc3c bfec 0c3d 1e8e dbbc
00000190: 7909 00bd 4f89 c43b 9b9e a73b 6740 d6bc
000001a0: 9711 093d 7190 bf3c fe65 d8bb 545e 21bb
000001b0: 5676 1cbc 298f 013d a4b4 4ebb 29a5 be3c
000001c0: 9385 eb3c 3651 453b 52db abbb 2461 ab3c
000001d0: 79e7 a0bc 55f4 113d 1a8a 9e39 34b7 b33c
000001e0: cbe1 983c 5652 f3bb fb33 003d 9844 003d
000001f0: 612d bf3c 55b5 f4bc b859 083d 0a1b bebc
00000200: cfdc b0bb 3658 9a3c c649 89bc f2cb 0b3d
00000210: 94a1 153d 2594 63bc c043 3abb 8f03 5ebc
00000220: c042 e33c 6bd0 943c 982c c4bc 2907 9dbc
00000230: 68af 05bc f71f 23bc 2326 c0bb 16a1 753c
00000240: 5a38 19bd a7dd 06bd b367 3c3c 4a7f 183d
00000250: 70e4 bb3c 175f 0c3c 6185 8cbc dd69 ba3a
00000260: 2312 08bd 9024 b7bc 50b4 c5bb 4f17 debc
00000270: 1fd3 05bd c2de 823c d5de f9bc 740d 0dbc
00000280: c96c 083d fde7 1cbd dc7d 04bd 8144 01bd
00000290: 2a5d 59bc b6c5 1abd 1433 12bd ac26 873b
000002a0: 3499 563c efa4 ae3a 17e4 c13c d3b2 92bc
000002b0: b015 213c 3b0f 01bd 36cb 953c 929e 1c3d
000002c0: e757 72bc 1bb2 563c 9c8c 97bb 674e 1bbc
000002d0: 46c7 e5bc d117 f33c e11e 2bbc 36f3 06bb
000002e0: 391c 113b aeae a13b e621 063c 0add a13c
000002f0: ae8b c6bb 1b15 bfbc 9097 f13b 5670 49bc
00000300: 7592 023d 3f9c b6bc e8d3 d5bc cb2e cdbb
00000310: 4e23 e93c 7c14 0cbc 4f73 cf3c dc40 c73c
00000320: 82bd fc3c 4c6c ad3c 523a 0bbc 569a d2bc
00000330: 8946 853c bccf 813c 19f0 7fbc 22c9 133d
00000340: 1cb9 403b ff7e 043d 6cba 76bc e3db 05bd
00000350: 6c9d 8b3c 06ab bbbc cc76 15bc 8329 1c3d
00000360: cf24 69bc 5af6 013b 819e adbb e898 f9bb
00000370: 7f0a f63c efb6 b3bc 89c2 9bbc de40 423c
00000380: a011 16bd 2b8f 533c 44a3 c0bc bd31 5abc
00000390: f28f 68bb 0e6c da3c a21b 8cbc 9252 4f3b
000003a0: 020a 103c 8229 853b e627 babb 8bf1 a73a
000003b0: 7989 d83c 4513 033d 8dc7 d8bc 7e7f 323c
000003c0: b2a6 c5ba 69e1 75bc 0e6f da3c 9013 02bd
000003d0: 086e ee3c b280 fb3c 554b 653c 8aaa 633a
000003e0: 17f1 28bc 611b 183b 9f9a 79bc c2a8 8e3c
000003f0: 342e 3a3c 29d3 3d3c c9ad e6bb 017c af3c

fc.0.bias f4 [64]
0.008391094 0.0037074366 -0.014641924 0.006688445 0.038525447 -0.0397154 -0.01779957 -0.024385994
-0.018759785 -0.036781814 0.0016557121 0.030897278 -0.009483034 -0.0059738737 0.009790544 0.030129911
-0.03662236 0.0015470457 0.012609449 -0.012159094 -1.6464799e-05 0.037459597 -0.024204874 -0.019671869
-0.0040597254 -0.0013375576 -0.0024674416 -0.020676346 -0.02806102 -0.0360016 -0.013888328 0.03667933
0.011502083 0.024755727 0.024462635 0.029836757 0.038312413 -0.03177627 0.029475885 -0.01695631
-0.022347772 0.038574975 -0.032685492 -0.0029769784 0.02896444 0.0013754499 -0.024507605 -0.0009721889
0.012177207 0.010395271 -0.032727886 -0.010878384 0.0039596534 0.0022522903 -0.008354536 -0.020849686
-0.03312099 0.029243138 -0.008252195 0.006297169 -0.022597797 -0.0031437913 0.0067382776 -0.016776124
00000000: cd7a 093c 77f8 723b aee4 6fbc be2a db3b
00000010: dccc 1d3d 9eac 22bd 67d0 91bc 23c5 c7bc
00000020: 1fae 99bc 87a8 16bd 7b04 d93a 4a1c fd3c
00000030: ba5e 1bbc 7cc0 c3bb 8568 203c 01d3 f63c
00000040: 5401 16bd 3dc6 ca3a dd97 4e3c f036 47bc
00000050: e31d 8ab7 3c6f 193d 4d49 c6bc e626 a1bc
00000060: 7207 85bb fc50 afba cdb4 21bb 7161 a9bc
00000070: 39e0 e5bc 6a76 13bd df8b 63bc 113d 163d
00000080: 3c73 3c3c 86cc ca3c dd65 c83c 376c f43c
00000090: 7aed 1c3d d627 02bd 6977 f13c f6e7 8abc
000000a0: ad12 b7bc cb00 1e3d 39e1 05bd 6919 43bb
000000b0: d546 ed3c 7148 b43a 2cc4 c8bc 7eda 7eba
000000c0: e882 473c ed50 2a3c ad0d 06bd 403b 32bc
000000d0: fbbf 813b 299b 133b 77e1 08bc f6cc aabc
000000e0: e0a9 07bd 4e8f ef3c 3734 07bc 7b58 ce3b
000000f0: 041f b9bc 1108 4ebb c5cc dc3b 156e 89bc

fc.2.weight f4 [9, 64]
-0.07731566 0.05103993 0.059114207 0.07370821 0.068504855 0.07533647 -0.05464703 0.07042445
0.077894524 -0.0152247995 0.02265381 0.03145957 0.046121974 -0.118112534 0.118920475 0.052834377
-0.01600009 0.02970308 0.012379464 -0.12203296 -0.076209545 0.0891034 -0.07636663 -0.07697547
-0.061895415 0.092928484 -0.095498204 0.11926639 0.06280418 -0.010272214 0.076458216 -0.037237138
-0.092008576 0.06483744 0.09638938 0.0150829535 0.019538894 0.09274791 0.011611998 -0.09556307
0.10300777 0.06691979 -0.10398259 0.05087487 -0.08116532 0.006259337 -0.08236666 0.11735324
0.11430538 -0.09621664 0.10811022 -0.0055524856 0.12234276 0.088265136 0.10182348 0.08090687
0.007152304 -0.057437174 -0.050467905 0.008715376 0.10284558 -0.059455935 0.033394936 0.09050959
-0.11479671 0.07497845 0.11138684 0.09613862 -0.068149135 0.015598648 0.11450991 -0.09007186
-0.007925898 0.020184994 -0.05181958 -0.047295153 -0.010059273 0.061395034 0.08077003 -0.035329938
0.09698948 -0.061978854 0.12023346 0.10661221 0.022227915 0.056355424 -0.063990414 0.09083117
0.04013194 0.04194975 -0.046259522 -0.029649973 -0.031796366 0.12467922 0.12178467 -0.09201871
-0.05727238 0.11334312 0.031589568 0.04719128 -0.080598935 -0.069238335 0.016497403 0.06890136
0.06653383 -0.101925224 -0.023810137 -0.12053777 0.0047428575 -0.02371344 -0.07813601 -0.02360942
0.1263254 0.032260757 0.01474364 0.09804708 0.118296914 -0.115711644 -0.07149243 -0.023166468
0.09072968 -0.092794284 -0.07634468 0.012597844 0.11768384 -0.09880383 -0.10389841 -0.10079189
0.10699618 0.112252824 0.035220932 0.099854544 -0.067432374 -0.059840947 0.025541857 -0.115541354
-0.07698302 -0.013392642 0.04746 0.08257748 -0.083216615 -0.051892832 -0.07393119 0.09452705
-0.10632073 0.009518964 0.079836726 -0.08540357 0.036697384 -0.112054355 0.06479539 0.12245163
0.11383483 -0.10631195 0.0918526 -0.040286988 -0.011586979 -0.06676396 -0.12488243 0.07473853
-0.087375104 -0.091964945 -0.12215613 -0.024906231 -0.028551623 -0.005742699 -0.070728615 -0.09410949
-0.078066535 0.00035358965 0.054916427 0.06056164 -0.082545735 0.061903745 -0.014600486 -0.03423612
-0.0075054057 -0.038846742 -0.08587395 0.013624266 -0.041713245 -0.078255825 -0.01669477 0.10288439
-0.11328593 -0.09524692 -0.10849555 -0.06070973 -0.10233605 -0.07853991 0.120867945 0.0012920648
0.014157832 0.11168478 -0.096211754 -0.10569811 0.015299386 0.009539025 0.006193936 0.08878428
-0.061238676 0.034437746 -0.0039714747 0.017241657 -0.06293695 -0.021912828 -0.124210656 0.07550976
0.07675105 -0.073924124 0.09901755 0.09519438 -0.1188891 -0.085432805 0.061962612 -0.068451345
0.09210439 0.0017485917 -0.021024065 -0.0499779 -0.06964885 -0.12405291 -0.12015419 0.020125434
-0.050532628 0.079233214 -0.077445224 -0.041894726 -0.08431859 0.09282005 -0.05127625 -0.061752737
0.042713333 -0.10561493 -0.104884945 0.011698631 -0.05625103 0.08733958 -0.10518001 -0.06149855
0.10751498 0.110634916 -0.08841251 -0.06935349 -0.094576314 -0.069738574 0.1056235 -0.0068368767
0.084659204 -0.008609354 0.014230912 0.044305533 0.047797576 0.11644868 0.03723038 -0.044896454
00000000: ac57 9ebd 3f0f 513d bd21 723d 54f4 963d
00000010: 464c 8c3d 024a 9a3d 90d5 5fbd b23a 903d
00000020: 2a87 9f3d 7071 79bc 7c94 b93c c0db 003d
00000030: 65ea 3c3d fce4 f1bd 948c f33d dc68 583d
00000040: 9f12 83bc e053 f33c 3cd3 4a3c 6bec f9bd
00000050: c013 9cbd d87b b63d 1c66 9cbd 51a5 9dbd
00000060: 0c86 7dbd 4a51 be3d 9094 c3bd f041 f43d
00000070: 7a9f 803d ca4c 28bc 2096 9c3d f885 18bd
00000080: fe6e bcbd 7ec9 843d cc67 c53d 7e1e 773c
00000090: 0810 a03c 9ef2 bd3d 4040 3e3c 92b6 c3bd
000000a0: bdf5 d23d 3e0d 893d d3f4 d4bd 2b62 503d
000000b0: 013a a6bd 201b cd3b daaf a8bd e556 f03d
000000c0: f018 ea3d 3b0d c5bd e468 dd3d a0f1 b5bb
000000d0: d78e fa3d 5ac4 b43d d488 d03d 80b2 a53d
000000e0: e05d ea3b 3e43 6bbd 6fb7 4ebd f0ca 0e3c
000000f0: b4a0 d23d 1188 73bd 21c9 083d 185d b93d
00000100: 8a1a ebbd 4d8e 993d c91e e43d 53e4 c43d
00000110: c691 8bbd 7991 7f3c 2c84 ea3d 9877 b8bd
00000120: a0db 01bc 005b a53c c540 54bd 90b8 41bd
00000130: a6cf 24bc 5c79 7b3d c26a a53d 20b6 10bd
00000140: 6ca2 c63d 8add 7dbd f63c f63d 8157 da3d
00000150: 5117 b63c f2d4 663d 680d 83bd b105 ba3d
00000160: 6461 243d 80d3 2b3d a07a 3dbd 80e4 f2bc
00000170: e83c 02bd d257 ff3d 3e6a f93d 4e74 bcbd
00000180: 7196 6abd 7020 e83d 1064 013d a54b 413d
00000190: 0e11 a5bd d4cc 8dbd 9025 873c 281c 8d3d
000001a0: e342 883d 2cbe d0bd 7a0d c3bc 82dc f6bd
000001b0: f969 9b3b b042 c2bc c605 a0bd 8b68 c1bc
000001c0: 725b 013e db23 043d 4f8f 713c e8cc c83d
000001d0: a745 f23d 3afa ecbd a06a 92bd 9bc7 bdbc
000001e0: 7cd0 b93d ee0a bebd 995a 9cbd 3067 4e3c
000001f0: 3a04 f13d aa59 cabd b1c8 d4bd fa6b cebd
00000200: d020 db3d cfe4 e53d d343 103d 8a80 cc3d
00000210: fc19 8abd c81b 75bd 283d d13c f2a0 ecbd
00000220: 46a9 9dbd d06c 5bbc 6b65 423d 621e a93d
00000230: 796d aabd 948d 54bd 3c69 97bd 6697 c13d
00000240: afbe d9bd 6ef5 1b3c 7081 a33d 11e8 aebd
00000250: ff4f 163d c17c e5bd 72b3 843d ecc7 fa3d
00000260: 3c22 e93d 14ba d9bd 371d bc3d f803 25bd
00000270: 50d7 3dbc 8bbb 88bd 5cc2 ffbd 8410 993d
00000280: b8f1 b2bd 1e58 bcbd fe2c fabd 2708 ccbc
00000290: 18e5 e9bc 402d bcbb 2ada 90bd 7abc c0bd
000002a0: 59e1 9fbd 0062 b939 0cf0 603d 7b0f 783d
000002b0: bd0d a9bd c88e 7d3d e036 6fbc 2c3b 0cbd
000002c0: e8ef f5bb c31d 1fbd aede afbd 5038 5f3c
000002d0: 82db 2abd 9744 a0bd 78c3 88bc 0db5 d23d
000002e0: 7402 e8bd d110 c3bd ea32 debd c4aa 78bd
000002f0: 9095 d1bd 88d9 a0bd 9d89 f73d 805a a93a
00000300: 40f6 673c fdba e43d ab0a c5bd 4078 d8bd
00000310: 47aa 7a3c 9249 1c3c 80f6 ca3b 88d4 b53d
00000320: 68d5 7abd 980e 0d3d 2523 82bb 603e 8d3c
00000330: 16e5 80bd 8882 b3bc 2862 febd dca4 9a3d
00000340: a82f 9d3d 8865 97bd b7c9 ca3d 45f5 c23d
00000350: 217c f3bd 65f7 aebd 82cc 7d3d 3830 8cbd
00000360: 3aa1 bc3d 0031 e53a a93a acbc a0b5 4cbd
00000370: 0ea4 8ebd 740f febd 6613 f6bd 18de a43c
00000380: 4dfb 4ebd 0645 a23d 9a9b 9ebd ce99 2bbd
00000390: 3aaf acbd 7018 be3d 0c07 52bd 70f0 7cbd
000003a0: 2df4 2e3d a44c d8bd ebcd d6bd 9dab 3f3c
000003b0: 7b67 66bd 18df b23d 9e68 d7bd e7e5 7bbd
000003c0: d030 dc3d 8f94 e23d 9e11 b5bd 3409 8ebd
000003d0: 3ab1 c1bd 19d3 8ebd 2251 d83d e107 e0bb
000003e0: ce61 ad3d 3f0e 0dbc c528 693c b879 353d
000003f0: 64c7 433d a57c ee3d e27e 183d 58e5 37bd

fc.2.bias f4 [9]
-0.044023834 0.094341844 -0.037884537 -0.034233224 -0.121108286 -0.1093108 -0.05149975 -0.09824235
0.11423061
00000000: 5652 34bd 4c36 c13d d12c 1bbd 2338 0cbd
00000010: 9f07 f8bd 57de dfbd 67f1 52bd 4933 c9bd
00000020: bdf1 e93d
