log/U2Net_BlazePose_separable_conv_regressor_weights.pt (torch, 463777 bytes, 11 tensors)

depthwise.weight f4 [1, 1, 3]
0	0xbec5d196	-0.38636464
1	0xbf0a9092	-0.54126847
2	0xbeb56091	-0.35425237

pointwise.weight f4 [16, 1, 1]
0	0xbe99a716	-0.3001029
1	0x3f02f15e	0.5114955
2	0xbd04ab1f	-0.032389756
3	0xbed21b84	-0.41036618
4	0xbf0462b8	-0.5171313
5	0x3f41f194	0.75759244
6	0xbe216771	-0.15762116
7	0xbe2fb388	-0.1715833
8	0x3f409ba4	0.7523749
9	0xbf3e54d7	-0.74348205
10	0xbea1f551	-0.31632474
11	0xbf4cb409	-0.7996221
12	0xbe011234	-0.126046
13	0xbc7ed435	-0.015553524
14	0x3f65c4d4	0.8975346
15	0xbf10876e	-0.5645665

pointwise.bias f4 [16]
0	0x3f634957	0.8878378
1	0xbe20bc18	-0.15696752
2	0x3e9d0daa	0.30674487
3	0x3f2309d7	0.6368689
4	0x3d1d6c78	0.038433522
5	0x3d3bbac0	0.045832396
6	0xbf47adaa	-0.77999365
7	0xbddb23bc	-0.10700175
8	0x3f6b9d38	0.9203677
9	0x3e0fbcf0	0.14036918
10	0x3f38fa2a	0.7225672
11	0x3e3ab3f9	0.18232717
12	0x3f2fab75	0.68621
13	0xbef4d8fe	-0.47821802
14	0xbc416700	-0.011804342
15	0xbf2476ba	-0.6424366

conv2.0.weight f4 [32, 1, 3]
0	0x3f0f7bfe	0.5604857
1	0xbd4a2a96	-0.04935702
2	0xbe6c63c7	-0.23084937
3	0xbe2b8062	-0.16748193
4	0xbdb3d85b	-0.08781501
5	0xbe818f32	-0.25304562
6	0x3edca138	0.4309175
7	0xbebf5430	-0.37368917
8	0x3f0bb952	0.5457965
9	0xbdce59bf	-0.100757115
10	0x3f0b803a	0.54492533
11	0x3e3154ac	0.17317456
12	0xbe6d85fd	-0.23195644
13	0xbefaa729	-0.48955658
14	0xbd80359f	-0.062602274
15	0xbe74aa06	-0.23892984
16	0xbe45a1b5	-0.19299968
17	0xbe68c125	-0.22729929
18	0x3e5880ab	0.21142833
19	0xbe523a68	-0.20530093
20	0xbd6e09ea	-0.058114924
21	0xbf07d998	-0.53066397
22	0x3ef13180	0.47108078
23	0xbe89bf3b	-0.2690371
24	0xbeb2f86f	-0.34955165
25	0x3d21c4d3	0.039494347
26	0xbd8fcde8	-0.070216954
27	0xbe46ef67	-0.19427262
28	0xbda6404a	-0.08117731
29	0xbecff0ad	-0.4061331
30	0xbe32e7fd	-0.17471309
31	0xbd845a17	-0.06462496
32	0xbdb3f352	-0.08786644
33	0x3f1038a6	0.5633644
34	0x3e8518c4	0.25995457
35	0x3eb967af	0.36211917
36	0x3e62a63c	0.22133726
37	0x3e94459e	0.28959364
38	0xbe8d8921	-0.27643684
39	0x3eeb0913	0.4590536
40	0xbed95fdc	-0.42455947
41	0x3dcd1017	0.100128345
42	0xbead3a68	-0.33833623
43	0xbcc4e0b1	-0.024032922
44	0xbf07491b	-0.52845925
45	0xbeb1656e	-0.34647697
46	0x3ec592c4	0.38588536
47	0xbd9a1af7	-0.075246744
48	0xbe29b25c	-0.16571945
49	0xbea8a4af	-0.32938144
50	0x3d5533e1	0.05205143
51	0xbd92024e	-0.07129346
52	0x3f00cabd	0.50309354
53	0x3e9ea59b	0.30985722
54	0xbe06e6f1	-0.13174035
55	0xbe63a2c9	-0.22230066
56	0xbeb21594	-0.34782088
57	0xbe9d0da0	-0.30674458
58	0xbf0596f6	-0.52183473
59	0xbb4ea093	-0.0031528815
60	0xbe900972	-0.28132206
61	0xbe5e2103	-0.2169228
62	0xbea5a18c	-0.32349813
63	0xbeca339f	-0.3949251
64	0x3e48a65d	0.19594713
65	0xbe366689	-0.17812552
66	0x3ef43e84	0.47703946
67	0xbeb35649	-0.35026768
68	0x3f0af51b	0.5428025
69	0x3d554b37	0.052073684
70	0xbe26d41d	-0.16291852
71	0xbe841bd8	-0.25802493
72	0xbe5a1163	-0.21295695
73	0xbe89a71e	-0.26885313
74	0xbeb9e398	-0.36306453
75	0x3c288d61	0.010287614
76	0x3d968abc	0.0735068
77	0x3e75e6c0	0.24013805
78	0x3ed8b4d3	0.42325458
79	0xbee39c05	-0.4445497
80	0x3e9f7174	0.31141245
81	0xbcd7bfbd	-0.026336545
82	0xbee51781	-0.44744495
83	0x3e87af3e	0.26500887
84	0x3e49480f	0.19656394
85	0xbe39791b	-0.18112604
86	0x3b0ac335	0.0021173481
87	0xbec819ef	-0.39082286
88	0xbf0bff29	-0.5468622
89	0x3ec495b8	0.38395476
90	0x3eac338a	0.3363307
91	0x3ed11098	0.40832973
92	0x3e1efa94	0.15525275
93	0xbe932114	-0.28736174
94	0x3f111c35	0.56683666
95	0x3f00669f	0.5015659

conv2.0.bias f4 [32]
0	0x3efb3822	0.49066263
1	0x3ed00e83	0.40636072
2	0xbdb869e4	-0.09004572
3	0xbe9a4613	-0.30131587
4	0x3e377a60	0.17917776
5	0x3e3cf0d1	0.18451239
6	0x3e9db6cf	0.30803534
7	0xbc1600c8	-0.00915546
8	0xbe087459	-0.13325633
9	0x3d0c0b14	0.034190252
10	0x3e5cb0eb	0.21551864
11	0xbe5d939a	-0.21638337
12	0xbed2c854	-0.41168463
13	0x3eb0926f	0.3448672
14	0x3dcc3f0e	0.09972964
15	0xbe835f8d	-0.25658837
16	0x3e29305b	0.16522352
17	0xbe9a0271	-0.30079988
18	0xbeec2978	-0.46125388
19	0xbe4d008c	-0.2001974
20	0x3edc07f8	0.4297483
21	0x3c705a85	0.014670019
22	0xbe72e792	-0.2372115
23	0x3e373a85	0.17893417
24	0x3f0ae6a3	0.54258174
25	0x3e5f5d15	0.21812852
26	0x3d838b89	0.064230986
27	0x3f0263ca	0.50933516
28	0xbece9b0f	-0.40352675
29	0xbeb9c225	-0.36280933
30	0x3e9af265	0.30263057
31	0x3bcbc50f	0.0062185596

conv2.1.weight f4 [32, 32, 1]
0	0x3b1ee1d3	0.0024243488
1	0xbe2f2300	-0.17103195
2	0xbdd1311f	-0.10214447
3	0x3d623d9a	0.05523453
4	0xbe21d83c	-0.15805143
5	0xbac45f23	-0.0014981966
6	0x3d81d659	0.06339712
7	0x3cc27d9f	0.023741541
8	0x3cc2e699	0.023791598
9	0xbdbfbeef	-0.093625896
10	0xbd8c60f6	-0.06854431
11	0x3db2ce0c	0.087307066
12	0x3dc3b72a	0.0955642
13	0x3d376ccd	0.044781495
14	0x3dc812f1	0.09769238
15	0x3d4ea2d4	0.050448254
16	0x3c089578	0.008336417
17	0xbd93b6d9	-0.0721261
18	0x3e0bac14	0.13639861
19	0x3ca64a33	0.020299053
20	0xbcb1efd8	-0.021720812
21	0x3dabccf7	0.08388703
22	0x3dcc234f	0.09967672
23	0xba951d77	-0.0011376579
24	0xbe17c65e	-0.14821765
25	0x3d32cad9	0.04365048
26	0x3bc5d60f	0.0060374807
27	0xbda984ac	-0.08277258
28	0xbe103a7e	-0.14084813
29	0xbd5568ab	-0.052101772
30	0xbd9909c5	-0.074725665
31	0xbd45655a	-0.04819236
32	0x3d1cadef	0.038251814
33	0x3e2884c5	0.16456898
34	0x3d2fe709	0.04294494
35	0x3c2feac6	0.010737127
36	0xbdf0a6f4	-0.11750594
37	0xbd05ca94	-0.032663897
38	0xbdc3e3ab	-0.095649086
39	0x3e24ee5a	0.16106549
40	0x3e29ce4a	0.165826
41	0x3db125c0	0.08649778
42	0x3d923dda	0.071407035
43	0x3db0f39e	0.08640216
44	0x3e12fbc8	0.1435386
45	0xbde86d6b	-0.11348995
46	0x3d528042	0.051391847
47	0x3e14c50a	0.1452829
48	0x3dc546cb	0.09632643
49	0x3d0b9ad9	0.03408322
50	0xbd9a237e	-0.07526301
51	0x3dbb4df4	0.09145728
52	0xbdd5208e	-0.104066
53	0xbdf60b02	-0.12013818
54	0xbe08d47d	-0.13362308
55	0xbe35d65b	-0.17757551
56	0xbd64df46	-0.055876993
57	0x3cbec4d7	0.02328722
58	0x3dcee4eb	0.101022564
59	0xbdf3d060	-0.11904979
60	0x3d0e98e3	0.034813773
61	0xbce44919	-0.027866887
62	0x3e15fd14	0.14647323
63	0xbbb08dc8	-0.0053879954
64	0xbe06cfe6	-0.13165244
65	0xbd94d833	-0.07267799
66	0x3c39a803	0.011331561
67	0x3e03c52d	0.12868185
68	0xbd632bf5	-0.055461843
69	0xbdf2dfdb	-0.11859103
70	0xbab561f0	-0.0013838392
71	0x3dee145c	0.11624977
72	0xbd014a69	-0.031565104
73	0x3c52f936	0.012876799
74	0x3dc5eb9b	0.09664079
75	0xbe25d009	-0.1619264
76	0x3dd617c2	0.1045375
77	0xbe1c8674	-0.15285665
78	0xbe25a07e	-0.16174504
79	0x3dc4ed27	0.09615546
80	0xbc411bbc	-0.011786398
81	0xbdb3eb28	-0.08785087
82	0x3cf5a921	0.029987874
83	0xbe1ee7e0	-0.15518141
84	0x3c982393	0.01857165
85	0x3e2a5601	0.1663437
86	0xbdf78b85	-0.12087158
87	0x3e262d6a	0.16228262
88	0x3de323df	0.11090826
89	0x3df4af77	0.1194753
90	0x3d8d356e	0.068949565
91	0xbe0745a1	-0.13210155
92	0x3d9bb3c1	0.07602645
93	0x3e0281e9	0.1274487
94	0x3db1a940	0.0867486
95	0x3e26af90	0.1627791
96	0xbde4cb6b	-0.111716114
97	0x3e0b99da	0.13632908
98	0xba62faae	-0.000865857
99	0xbd4c6e7a	-0.049910046
100	0xbd777162	-0.060410865
101	0x3cbdff1d	0.023192937
102	0x3e0bdd54	0.13658649
103	0xbcef4af9	-0.029210554
104	0xbdcadc89	-0.09905345
105	0x3d4cff7a	0.05004833
106	0x3cc01aac	0.023450218
107	0xbd113002	-0.035446174
108	0xbdd39faf	-0.103331916
109	0xbe1dba29	-0.15403046
110	0xbcdc8d0d	-0.026922727
111	0x3d07c2d5	0.03314479
112	0xbdcf73f0	-0.10129535
113	0x3c7bd52a	0.0153706465
114	0x3d6d7038	0.05796835
115	0xbe2b93d1	-0.16755606
116	0x3df61b60	0.1201694
117	0xbdadd8d3	-0.084886216
118	0xbdbc794e	-0.092028245
119	0xbdd117b6	-0.102096006
120	0x3e0129a5	0.12613542
121	0xbc235249	-0.009968349
122	0xbde0e917	-0.10981958
123	0xbe35ed69	-0.17766346
124	0xbc9efae0	-0.019406736
125	0xbd28c1ea	-0.041200556
126	0x3dd18bf4	0.10231772
127	0x3e2b2914	0.16714889
128	0xbd979bad	-0.0740274
129	0x3da83f6c	0.08215222
130	0xbbf68767	-0.0075234654
131	0xbe2ede41	-0.1707697
132	0xbdab48d1	-0.08363498
133	0xbe0bf582	-0.13667873
134	0xbdce2635	-0.10065881
135	0xbbbe8ca5	-0.005815106
136	0xbe16f6af	-0.1474254
137	0x3d79fe22	0.061033376
138	0xbd8dcaa7	-0.069234185
139	0xbde938d9	-0.11387796
140	0xbd267aea	-0.040644564
141	0xbe17f4f0	-0.1483953
142	0x3d7357c1	0.05940986
143	0x3d213be6	0.039363764
144	0xbdbd24df	-0.09235548
145	0xbd8f137d	-0.06986139
146	0x3d244415	0.04010399
147	0xbdad46da	-0.084607795
148	0xbdf4dbc7	-0.11955982
149	0x3ce8a6da	0.028399874
150	0xbdea9691	-0.114544995
151	0x3e151e74	0.14562398
152	0xbd336a24	-0.043802395
153	0xbda9dd22	-0.08294131
154	0x3df68339	0.120367475
155	0x3d228a79	0.03968284
156	0xbd392aea	-0.04520694
157	0xbdaaabfc	-0.08333585
158	0xbe01ea00	-0.1268692
159	0xbc312306	-0.010811573
160	0x3e024f34	0.12725526
161	0xbcab54dc	-0.020914488
162	0xbdc9a29e	-0.0984547
163	0xbdb86e48	-0.090054095
164	0xbe18471b	-0.14870875
165	0xbe0cc6d0	-0.13747716
166	0x3e34d316	0.17658648
167	0x3e320467	0.17384492
168	0xbd2af0ce	-0.041733555
169	0x3d5f51a6	0.054521225
170	0x3de6ffdf	0.11279272
171	0x3e08c57c	0.13356584
172	0x3cef36ac	0.029200874
173	0x3d7afefe	0.061278336
174	0x3d9eb49c	0.07749292
175	0xbd886919	-0.06660671
176	0xbce229e7	-0.027607871
177	0xbd2e425f	-0.042543765
178	0x3e0efc6d	0.1396348
179	0x3dd84f74	0.105620295
180	0xbcfe6c50	-0.031057507
181	0x3dbc7f0e	0.09203921
182	0x3dc1bee3	0.09460237
183	0xbd5d260a	-0.053991355
184	0xbd55739f	-0.052112218
185	0x3cf46e44	0.029837735
186	0xbde6f33e	-0.112768635
187	0xbe273414	-0.1632846
188	0xbdd5e2ca	-0.10443647
189	0xbc866fdc	-0.01641076
190	0xbe0fc439	-0.14039697
191	0xbe18b7f0	-0.14913917
192	0xbdab9c11	-0.08379377
193	0xbe30c489	-0.17262472
194	0xbdafd024	-0.085846215
195	0x3e04fac7	0.12986289
196	0xbd56164a	-0.05226735
197	0x3ac6d580	0.0015169829
198	0xbe2ed321	-0.17072727
199	0x3dd81e89	0.10552699
200	0x3d13e609	0.03610805
201	0xbe03deee	-0.1287801
202	0x3e102d17	0.140797
203	0x3e0e291c	0.1388287
204	0x3dce4941	0.10072566
205	0x3be9ab8a	0.0071310448
206	0x3d898950	0.067156434
207	0xbd64f6cb	-0.055899423
208	0x3d932664	0.07185057
209	0x3cb8056c	0.022463523
210	0xbe33640a	-0.1751863
211	0xbd82af46	-0.06381087
212	0xbdb2edab	-0.08736738
213	0x3d2f6c1e	0.042827718
214	0x3ddc0ecc	0.1074501
215	0x3cdbf4ad	0.026850069
216	0x3d981c8f	0.07427322
217	0x3bf03f5f	0.007331773
218	0x3dd43d84	0.10363296
219	0x3d8cf8d8	0.06883401
220	0xbda36b2c	-0.07979426
221	0x3da661d0	0.08124125
222	0x3dedced4	0.11611715
223	0x3be219b0	0.006900035
224	0x3e13467e	0.1438236
225	0xbdb6e176	-0.08929722
226	0x3e1c8ad3	0.15287332
227	0xbe1e8892	-0.15481785
228	0xbc725d70	-0.014792785
229	0xbe070342	-0.13184837
230	0xbd211272	-0.03932423
231	0x3e1b2290	0.15149903
232	0x3de2efac	0.1108087
233	0x3dd48047	0.103760295
234	0x3e180e39	0.14849176
235	0x3dae5e23	0.08514049
236	0xbdb1dc5f	-0.086846106
237	0xbc89b650	-0.016810566
238	0x3e1127ae	0.14175293
239	0xbdad5edf	-0.08465361
240	0x3e1ecab6	0.15507016
241	0xbdadae03	-0.08480456
242	0xbe016479	-0.12635984
243	0x3d1f6dfb	0.038923245
244	0xbdb29b2c	-0.08721003
245	0x3dad2941	0.08455134
246	0xbdfbf045	-0.12301687
247	0xbdd288fb	-0.10280033
248	0x3e2b1807	0.16708384
249	0xbd0244e1	-0.03180397
250	0xbc679731	-0.014135168
251	0x3b57d115	0.003293102
252	0xbdb087f8	-0.08619684
253	0x3e1f8284	0.15577132
254	0xbe07784b	-0.13229482
255	0xbdded294	-0.10880008

conv2.1.bias f4 [32]
0	0x3cbe9b2b	0.02326735
1	0x3d1c32dc	0.03813444
2	0x3b2b4bad	0.0026137636
3	0x3db17b2c	0.08666071
4	0x3e2aa517	0.1666454
5	0x3e1dd9d5	0.15415128
6	0x3dc4da5c	0.09611961
7	0xbe148344	-0.14503199
8	0x3ddd9d74	0.108210474
9	0xbe26f458	-0.16304147
10	0x3c2f19e7	0.010687328
11	0x3e368d13	0.17827253
12	0xbdbec578	-0.09315008
13	0x3d875e55	0.06609789
14	0x3d831f95	0.06402508
15	0xbd61fa76	-0.0551705
16	0xbde1fac5	-0.110341586
17	0xbda65f17	-0.08123606
18	0xbc0ad551	-0.00847371
19	0xbdc52f40	-0.09628153
20	0x3dacc6d8	0.08436364
21	0x3dd43676	0.1036195
22	0x3debbc05	0.11510471
23	0xbb6ed83b	-0.0036444801
24	0x3e27d2b9	0.16388978
25	0xbe157a7c	-0.14597505
26	0x3d76f6e7	0.06029406
27	0x3d6b468f	0.057440337
28	0x3e0ae822	0.13565114
29	0x3e28172e	0.16415092
30	0x3d910953	0.070818566
31	0xbd4ae69a	-0.049536325

fc.0.weight f4 [64, 1760]
0	0x3c226fb8	0.009914331
1	0x3c94ac4c	0.018148564
2	0x3a475645	0.0007604103
3	0x3c844bb9	0.016149389
4	0x3c163ad5	0.0091693
5	0xbc92e222	-0.017930094
6	0xbc75877c	-0.014985915
7	0x3c449b50	0.01199992
8	0x3bbc2ed7	0.0057428884
9	0x3cb7998c	0.022412084
10	0xbcae789e	-0.02129775
11	0x3c84dede	0.016219553
12	0xbc43b05b	-0.011943902
13	0xbc65de08	-0.014029987
14	0xbcbe2ad8	-0.023213789
15	0xbb4ab540	-0.0030930787
16	0xbaf9a236	-0.0019045535
17	0xbc2e0c12	-0.010622995
18	0xbc6451bf	-0.013935505
19	0xbb1589cf	-0.0022817736
20	0x3c31d894	0.010854859
21	0xbc9ed173	-0.019386983
22	0xbbff28ef	-0.007786862
23	0xbcb04a7d	-0.021519894
24	0xbc9980cb	-0.018738171
25	0x3c836181	0.016037704
26	0x3c90b6fb	0.017665377
27	0xbc1bb24a	-0.009502957
28	0xbc24c80e	-0.010057462
29	0x3c95caab	0.018285116
30	0xbc527f6e	-0.012847764
31	0x3bd1ba74	0.006400401
32	0xbc447964	-0.011991832
33	0xbcc1047d	-0.02356171
34	0xbbaed565	-0.005335497
35	0x3c7e430a	0.015518913
36	0x3ca8f0ad	0.020622576
37	0xbc84b80b	-0.01620104
38	0xbc913ea0	-0.017730057
39	0xbac1384e	-0.0014741512
40	0x3bb30810	0.0054636076
41	0x3c8a6d27	0.016897751
42	0xbb9f2c8f	-0.0048576067
43	0xbbfde260	-0.0077479333
44	0xbbadbb62	-0.005301879
45	0x3baa9dcf	0.0052068005
46	0xbb6b615b	-0.0035916183
47	0xbc99db65	-0.018781373
48	0xbc6a300f	-0.014293685
49	0xbc525640	-0.012837946
50	0xbc21a045	-0.009864871
51	0xbc89de64	-0.016829677
52	0x3c6204ce	0.013795091
53	0x3c789b88	0.0151738
54	0xbba16584	-0.0049254317
55	0xbb99e531	-0.004696511
56	0x3cb63dd5	0.02224628
57	0xbc7501a3	-0.0149540035
58	0x3c9188a0	0.017765343
59	0x3c8d030a	0.017213363
60	0xbca7d712	-0.020488296
61	0x3ba89257	0.005144398
62	0x3b49c3a4	0.0030786777
63	0xbcd86116	-0.026413482
64	0xbb785c82	-0.0037896936
65	0xbbde2cb0	-0.0067802295
66	0x3cbd953e	0.023142453
67	0xbab668f9	-0.0013916782
68	0xbcb6e34d	-0.022325182
69	0xbcafb204	-0.02144719
70	0xbca8b089	-0.020591991
71	0xbcbeecfb	-0.02330636
72	0xbbfc4e7d	-0.007699786
73	0xbc80d79f	-0.015727816
74	0x3c2ad513	0.010426777
75	0x3c5a27ec	0.013315182
76	0x3b852e8e	0.0040643876
77	0xbc683335	-0.014172365
78	0xbb8d12be	-0.0043052128
79	0x3c97b261	0.018517675
80	0x3c31156d	0.010808331
81	0x3b9fa663	0.0048721298
82	0xbcb6d127	-0.022316528
83	0xbcc08e70	-0.02350542
84	0xbcbe4852	-0.023227844
85	0x3aabbc9e	0.0013102477
86	0x3c61269d	0.013742116
87	0xbc15c5a6	-0.009141361
88	0x3cb4cb49	0.02206959
89	0xbc50c75f	-0.012742846
90	0xbad40b64	-0.0016177711
91	0x3c433d48	0.011916466
92	0x3c192026	0.009346044
93	0x3c96aa8c	0.01839187
94	0xbb095e3a	-0.0020960704
95	0x3cbdaebf	0.023154614
96	0xbca03719	-0.019557523
97	0xbbeb5d4b	-0.0071827522
98	0x3c6ad801	0.014333726
99	0x3cc49603	0.023997312
100	0xbc375ce8	-0.011191584
101	0xbc1f01f3	-0.009705055
102	0xbbb1a4b7	-0.005421247
103	0x3c5c01a0	0.013428122
104	0xbb807be2	-0.003921018
105	0xbafa512c	-0.0019097677
106	0x3bd2aa9a	0.0064290287
107	0xbc9969da	-0.018727232
108	0xbc4a9f48	-0.012367077
109	0x3c438a4c	0.011934828
110	0xbc552d60	-0.0130113065
111	0x3c3ba6cd	0.011453343
112	0xbc308da3	-0.010775956
113	0x3c9b3f3b	0.01895105
114	0x3c64fc4e	0.01397617
115	0xbc174b33	-0.0092342375
116	0x3cbc1448	0.02295889
117	0xbc3f1f97	-0.011665246
118	0x3c47e4f2	0.012200581
119	0x3b4d0152	0.0031281305
120	0x3c34707f	0.011013149
121	0xbbf6675d	-0.007519646
122	0xbb740406	-0.0037233843
123	0xbc955c36	-0.018232446
124	0x3cbeff0f	0.02331498
125	0x3c6df1f7	0.014523021
126	0xbc45550e	-0.012044204
127	0xbcafd4c3	-0.021463757
128	0xbc69c614	-0.014268417
129	0x3c49ed24	0.012324605
130	0x3c43fff8	0.011962883
131	0x3b190c91	0.0023353437
132	0x3c385531	0.01125078
133	0xbcb0d380	-0.021585226
134	0x3bd154ed	0.006388298
135	0x3cb6e1b8	0.022324428
136	0x3a6f03f6	0.00091177167
137	0x3cae3339	0.02126466
138	0xbcc59552	-0.024119053
139	0xbc9dc26a	-0.019257743
140	0xbc59f81c	-0.013303783
141	0xbc92b498	-0.01790838
142	0x3b3e49d7	0.0029035711
143	0x3be422e4	0.006962167
144	0x3ada1e07	0.0016641029
145	0x3b33298a	0.0027337992
146	0x3c156daa	0.009120384
147	0x3be94499	0.007118773
148	0x3c6ce430	0.014458701
149	0x3c91e180	0.017807722
150	0x3bfb0ffc	0.0076618176
151	0x3cbd6679	0.023120152
152	0xbba8d925	-0.005152839
153	0xbbb13a4b	-0.0054085604
154	0x3ca95c3c	0.020673864
155	0xbb70d0b5	-0.0036745493
156	0x3c18a23f	0.009316026
157	0xbbaf9dc5	-0.0053593838
158	0xbc8ad6d7	-0.016948147
159	0xbb86fde3	-0.004119621
160	0x3bd3b91c	0.0064612757
161	0xbc15986b	-0.009130578
162	0x3bae18b6	0.0053130044
163	0xbb0c7048	-0.002142923
164	0x3bfa97e0	0.0076474994
165	0x3c9bdb07	0.019025339
166	0x3cae631a	0.02128749
167	0x3c7fdba9	0.015616336
168	0x3bd0e8cd	0.0063754083
169	0xbb4f0e5a	-0.0031594248
170	0xbb586b5d	-0.0033022978
171	0xbb94b085	-0.0045376443
172	0xbb6cec8f	-0.0036151742
173	0x3c7e327d	0.015514967
174	0x3b1d04ba	0.0023959116
175	0x3c626703	0.013818505
176	0xbc904509	-0.017611044
177	0x3a82fa4b	0.0009992806
178	0xbc673b3a	-0.014113242
179	0xbb8ea80d	-0.0043535293
180	0x3cb2ad7e	0.021811243
181	0x3c8f5b2c	0.017499529
182	0x3b515311	0.003194038
183	0xbc2c184a	-0.010503838
184	0x38a5beeb	7.903374e-05
185	0x3c8807dd	0.016605312
186	0x3c008129	0.007843294
187	0xbbd1a613	-0.0063979714
188	0x3bc04477	0.0058675366
189	0x3bb26ff1	0.0054454734
190	0xbb6db8e4	-0.0036273533
191	0x3ca1e49c	0.01976233
192	0x3c11a75e	0.008890001
193	0x3bc71399	0.0060753343
194	0xbc542deb	-0.012950401
195	0xbc12a04b	-0.00894935
196	0xbca5aba4	-0.020223446
197	0xbc218452	-0.009858208
198	0x3c202ffb	0.009777064
199	0xbc834ef3	-0.016028857
200	0x3c8f7d46	0.01751579
201	0x3cbefa7f	0.023312805
202	0xbcac9c32	-0.021070573
203	0xbc08f76f	-0.008359774
204	0x3bf43212	0.007452258
205	0x3c67f62b	0.014157812
206	0xbc12c512	-0.008958118
207	0x3c20a98a	0.009806046
208	0x3b958183	0.004562558
209	0x3c8e6fc0	0.01738727
210	0x3ca56162	0.020188037
211	0x3a95754d	0.0011402756
212	0x3caea228	0.021317557
213	0x3c341e49	0.010993549
214	0x3cb6d87f	0.02232003
215	0x3c8c1bc0	0.017103076
216	0xbb50fee6	-0.0031890213
217	0xbbd170f9	-0.006391641
218	0x3c130a6e	0.008974655
219	0xbc2849b3	-0.0102714775
220	0xbc979f2a	-0.018508513
221	0x3cafb3c0	0.021448016
222	0xb9e63278	-0.0004390662
223	0x3c36fefd	0.011169192
224	0xbca1856e	-0.019716945
225	0x3b38f3db	0.002822152
226	0xbc50d493	-0.012745994
227	0x3c94254a	0.018084187
228	0xbbb19c08	-0.0054202117
229	0xbc5d80b5	-0.013519456
230	0xbc899729	-0.016795712
231	0xbbe52600	-0.0069930553
232	0xbc0aadba	-0.008464271
233	0x3c9c7840	0.019100308
234	0x3b92093e	0.004456668
235	0xbc842f65	-0.01613588
236	0xbb7c1cca	-0.0038469308
237	0xbbafab3b	-0.0053609884
238	0xbb706593	-0.0036681637
239	0xbca24194	-0.01980666
240	0x3c83238b	0.01600816
241	0xbcbe6400	-0.023241043
242	0x3c9a000b	0.018798849
243	0x3b4f662f	0.00316466
244	0xbcb0e439	-0.0215932
245	0xbcad336a	-0.02114268
246	0xba04a223	-0.00050595606
247	0xbab62654	-0.0013896921
248	0x3c047823	0.008085283
249	0xbcb69e98	-0.02229242
250	0x3c3007c7	0.010744042
251	0xba447ac6	-0.00074951013
252	0x3c6cbe2e	0.014449639
253	0xbb586ca9	-0.003302375
254	0x3c811a6a	0.015759666
255	0xbc1ed8f4	-0.00969528

fc.0.bias f4 [64]
0	0xbb9ef151	-0.0048505445
1	0xbca99027	-0.02069862
2	0x3cdedf71	0.027206155
3	0xbb9df5e0	-0.0048205703
4	0x3cc105b6	0.023562293
5	0x3b8d3466	0.004309225
6	0xb97e40f8	-0.0002424753
7	0xbb4be9c4	-0.0031114677
8	0x3c91143e	0.017709848
9	0x3ca7cc3d	0.02048313
10	0x3b8e0cac	0.0043350067
11	0x3cae49df	0.021275459
12	0x3cd5c6a6	0.0260957
13	0x3b433b69	0.002979005
14	0xbc091b62	-0.008368345
15	0xbc6cfc9d	-0.014464525
16	0xbc9252eb	-0.017861804
17	0xbc0dc6c6	-0.008653348
18	0xbc699ea7	-0.014259017
19	0x3cb3daf1	0.021954985
20	0xbc928ce3	-0.017889446
21	0xbca79920	-0.020458758
22	0xbca34f2f	-0.019935219
23	0x3c7f7e6a	0.015594104
24	0x3c5b4f0c	0.013385545
25	0xbb34d4cd	-0.002759266
26	0x3b38e5c2	0.0028213118
27	0x3bdee52f	0.006802223
28	0x3c109399	0.0088242525
29	0x3cc8a93b	0.024494758
30	0x3c9c17c9	0.01905431
31	0x3b91034c	0.004425442
32	0xbcb07c51	-0.021543654
33	0xbc4c5dfa	-0.012473578
34	0xbc02fae2	-0.007994385
35	0xbc6ae1b1	-0.014336036
36	0xbc94022c	-0.018067442
37	0xbbebb648	-0.0071933605
38	0x3caaeffa	0.020866383
39	0xbc777623	-0.01510385
40	0xbc8e6be4	-0.01738543
41	0xbc82edc6	-0.01598252
42	0x3a064876	0.0005122492
43	0xb79087d2	-1.7229384e-05
44	0xbad9e705	-0.0016624635
45	0x381309db	3.505671e-05
46	0x3c576b28	0.013148107
47	0x3b8ca6d9	0.0042923507
48	0xbb2c6da1	-0.002631046
49	0xbc4d0dee	-0.012515528
50	0xbc9d9df7	-0.019240363
51	0xbc906268	-0.017625049
52	0xbc852a54	-0.016255535
53	0x3c0b0f84	0.008487586
54	0xbba9d5df	-0.005182966
55	0xbca53316	-0.020165961
56	0x3c5065fc	0.0127196275
57	0x3c04d2d1	0.008106903
58	0x3c9f2079	0.019424664
59	0xbc5691be	-0.013096271
60	0x3b349c92	0.0027559143
61	0xbca5f58c	-0.020258687
62	0xbb71500a	-0.0036821389
63	0xbb344ed9	-0.0027512817

fc.2.weight f4 [9, 64]
0	0xbd4d62b2	-0.05014295
1	0xbdecf5e5	-0.11570338
2	0x3dac10ac	0.084016174
3	0xbd80348e	-0.06260024
4	0xbd2f8999	-0.042855833
5	0xbd056e2a	-0.032575764
6	0x3da4af9b	0.080413066
7	0x3d0cf41a	0.03441248
8	0x3da1c4c0	0.07898855
9	0xbdf1ea83	-0.11812308
10	0xbdf2d872	-0.1185769
11	0x3dfeee7e	0.124478325
12	0xbd4f361d	-0.050588716
13	0xbd8843b0	-0.06653535
14	0x3ce00f82	0.027351145
15	0xbd009843	-0.031395208
16	0xbd1f508c	-0.038895175
17	0xbdfe8b0e	-0.12428866
18	0xbddb616e	-0.107119426
19	0x3c843220	0.016137183
20	0x3cbae428	0.022813872
21	0xbd9b7018	-0.075897396
22	0xbba022ea	-0.0048869746
23	0xbcc9e1bc	-0.024643771
24	0xbd67bfec	-0.056579515
25	0x3ce8f7e8	0.028438523
26	0x3b191e44	0.0023363987
27	0xbdcfca94	-0.101460606
28	0xbdb3a552	-0.08771767
29	0xbd2dd170	-0.042436063
30	0xbd1be59c	-0.03806077
31	0xbd615624	-0.05501379
32	0x3d0f2c96	0.03495463
33	0xbd6ac80a	-0.05731968
34	0x3de60038	0.112305105
35	0xbdf9783f	-0.12181138
36	0xbd8e8cca	-0.06960447
37	0x3c139593	0.009007829
38	0x3cd0255f	0.025408445
39	0xbd409233	-0.047014426
40	0x3d7ce588	0.061742336
41	0xbc789790	-0.015172854
42	0xbd8f7c82	-0.0700617
43	0xbdab5016	-0.083648846
44	0x3d947819	0.07249469
45	0xbdc1c845	-0.094620265
46	0x3df8a024	0.121399194
47	0xbb3e11d2	-0.002900232
48	0xbdd5924d	-0.10428295
49	0xbdaf91c8	-0.085727274
50	0x3df52c64	0.119713575
51	0xbca56370	-0.020189017
52	0xbceac4cb	-0.028658291
53	0xbd8811bf	-0.0664401
54	0x3d44d8f3	0.04805846
55	0x3d6b6f91	0.057479445
56	0xbcfe2258	-0.031022236
57	0x3d9cef32	0.076628104
58	0xbc8732d7	-0.016503735
59	0xbda6a51b	-0.0813696
60	0x3ddeba32	0.10875358
61	0x3d498d03	0.049206745
62	0xbdac1c9f	-0.084038965
63	0x3dcd9770	0.1003865
64	0x3dc3e530	0.095651984
65	0xbdad4f25	-0.08462361
66	0xbd8226e6	-0.063550755
67	0xbd8176a4	-0.06321457
68	0xbd5ee653	-0.054418873
69	0xbd371c5a	-0.044704773
70	0xbc7bc381	-0.015366436
71	0x3d307b7c	0.043086514
72	0x3c1c396e	0.009535177
73	0xbd93e488	-0.07221323
74	0x3dbadf73	0.09124651
75	0xbd2ccebc	-0.042189345
76	0x3df6bc1a	0.12047596
77	0xbdb22853	-0.086990975
78	0xbdef408b	-0.116822325
79	0x3ddf223c	0.108952016
80	0xbbde0ac0	-0.006776184
81	0xbcb42e55	-0.02199475
82	0xbdf08006	-0.117431685
83	0xbd5250ac	-0.051346466
84	0x3dbf3406	0.093360946
85	0xbc2fcc87	-0.010729915
86	0x3deadd41	0.11467982
87	0x3d7bf857	0.061516132
88	0x3bebc500	0.007195115
89	0x3ca3e4b8	0.020006523
90	0xbd26fac6	-0.0407665
91	0x3d9160d5	0.07098547
92	0x3ddbcd5b	0.10732528
93	0xbd22452c	-0.03961675
94	0x3d4d3935	0.050103385
95	0xbcac533d	-0.021035785
96	0x3dbc053d	0.091806866
97	0xbd150388	-0.03638032
98	0x3d748f28	0.059706837
99	0x3dcb2c7f	0.09920596
100	0x3dfd306a	0.1236275
101	0xbcc23a0e	-0.023709323
102	0x3da6ba95	0.081410564
103	0x3d4fa557	0.05069479
104	0x3dd31a96	0.10307805
105	0xbd89b298	-0.06723517
106	0x3d24f94f	0.04027682
107	0x3db463a0	0.088080645
108	0x3aa6c191	0.0012722482
109	0x3d15e67b	0.036596756
110	0x3c6c5cef	0.014426454
111	0x3d86b740	0.06577921
112	0x3da7521d	0.08169959
113	0xbdcfd69c	-0.10148355
114	0xbd2eaffb	-0.042648297
115	0xbd94fae8	-0.07274419
116	0xbdba21c2	-0.0908847
117	0x3d271355	0.04078992
118	0x3c6786e7	0.014131284
119	0x3d9a8542	0.07544948
120	0xbd696494	-0.056980684
121	0x3d9b4db1	0.07583178
122	0xbb6f0849	-0.0036473444
123	0x3da6ea15	0.08150116
124	0xbde7bd77	-0.113154344
125	0xbd8a9b99	-0.06767959
126	0x3dab59a4	0.08366707
127	0x3ddb1fd9	0.10699434
128	0x3dee9555	0.116495766
129	0x3c8a604b	0.01689162
130	0x3d5bc9f2	0.053659387
131	0x3d4af25c	0.04954754
132	0x3ddeb629	0.10874588
133	0xbdaa42ee	-0.08313547
134	0x3df58497	0.1198818
135	0x3d09969c	0.033590898
136	0xbd7e0f01	-0.062026028
137	0xbbe2e5c5	-0.0069243633
138	0x3d350599	0.04419479
139	0x3df344c8	0.11878353
140	0xbdc907a5	-0.09815911
141	0x3d828c7a	0.0637445
142	0xbd124512	-0.0357104
143	0x3da7242b	0.08161195
144	0xbdad5ba2	-0.08464743
145	0xbcab7780	-0.020931005
146	0xbdabd92b	-0.08391031
147	0xbca5cfd8	-0.02024071
148	0x3cff0428	0.031129912
149	0x3dc963c3	0.09833481
150	0x3cdd9cfe	0.027052399
151	0xbdfb3f61	-0.12267948
152	0xbd7abb80	-0.06121397
153	0xbccd7428	-0.025079802
154	0xbc890188	-0.016724363
155	0xbcd54cd7	-0.026037617
156	0x3d2df69f	0.042471524
157	0xbcd83092	-0.026390348
158	0xbdb48d55	-0.088160194
159	0x3da0d81e	0.07853721
160	0x3ddbbac8	0.10728985
161	0xbcb786ca	-0.02240314
162	0x3daa9fc0	0.08331251
163	0xbcebdd62	-0.028792087
164	0xbdd877fa	-0.10569759
165	0x3dd2c77f	0.10291957
166	0xbd04f416	-0.03245934
167	0x3d1bb2a7	0.038012173
168	0x3de52be2	0.111900106
169	0xbdeb5088	-0.114899695
170	0xbdea2eb2	-0.11434688
171	0x3df1ad40	0.11800623
172	0xbad74dca	-0.0016426381
173	0xbde76f1f	-0.113004915
174	0x3da8c420	0.08240533
175	0x3d72dccc	0.0592926
176	0xbd89b241	-0.06723452
177	0xbd9182ec	-0.071050495
178	0x3dc155ba	0.09440179
179	0x3c56e9f0	0.0131172985
180	0xbc9f6e02	-0.019461636
181	0xbd78b3a5	-0.060718197
182	0x3d2a415a	0.04156623
183	0xbddaa732	-0.10676421
184	0x3d274b84	0.0408435
185	0x3dcdeba1	0.10054708
186	0x3b8b2745	0.0042466247
187	0x3da22c17	0.07918566
188	0x3da9a586	0.08283524
189	0xbdf2e713	-0.1186048
190	0x3d580d9e	0.05274736
191	0xbdc764ab	-0.09735998
192	0x38c6e172	9.483368e-05
193	0x3d8a1727	0.06742697
194	0xbc85ac7d	-0.0163176
195	0xbd3ef450	-0.046619713
196	0x3d572f9d	0.052535642
197	0x3d57d61f	0.052694436
198	0xbd83ce82	-0.064358726
199	0xbc8c13a7	-0.017099215
200	0x3b800214	0.0039064977
201	0x3d16d476	0.036823712
202	0x3d92e4c5	0.071725406
203	0x3d9b0744	0.07569745
204	0xbd1c5434	-0.03816624
205	0x3db51d84	0.0884352
206	0xbc56e653	-0.013116437
207	0x3d461c38	0.048366755
208	0xbd1eaf20	-0.03874123
209	0xbde875eb	-0.11350616
210	0x3d31e1da	0.04342828
211	0x3dfc948c	0.123330206
212	0xbd8c7f1c	-0.06860182
213	0x3c905892	0.017620359
214	0xbda34820	-0.07972741
215	0xbe01d76f	-0.12679838
216	0x3dcf8636	0.101330206
217	0xbb5adf00	-0.0033397079
218	0x3d24e4d5	0.040257294
219	0x3de05e54	0.10955492
220	0xbb0d644b	-0.0021574672
221	0x3c4aed24	0.01238564
222	0xbcaddded	-0.021223987
223	0xbd7b0bfe	-0.061290734
224	0x3db55e05	0.088558234
225	0x3cfaf61a	0.030634928
226	0xbde4235e	-0.11139558
227	0x3df9b6ca	0.12193067
228	0x3dc87a54	0.09788957
229	0xbdd651ca	-0.10464819
230	0xbdaee1c8	-0.08539158
231	0xbdc643a5	-0.09680871
232	0x3da84168	0.082156
233	0xbd71ddcc	-0.059049413
234	0xbdac3946	-0.084093615
235	0x3db3c2d4	0.08777395
236	0xbd262416	-0.040561758
237	0x3d6919f3	0.056909513
238	0x3db84cf1	0.089990504
239	0x3df2cc7e	0.1185541
240	0x3d476def	0.048688825
241	0xbab36c00	-0.0013688803
242	0xbdc030cd	-0.09384308
243	0x3d3d5980	0.046227932
244	0xbd7068ec	-0.05869381
245	0xbd5f6b38	-0.05454561
246	0xbddf574f	-0.10905325
247	0x3bafd902	0.0053664455
248	0xbddec6c2	-0.10877754
249	0x3d7f88fc	0.062386498
250	0xbddb62d5	-0.1071221
251	0x3ddb4613	0.10706725
252	0x3da5448a	0.080697134
253	0xbdfa3084	-0.12216285
254	0x3dfb8dbf	0.12282895
255	0x3a95ffe7	0.0011444063

fc.2.bias f4 [9]
0	0x3d2ffd72	0.042966314
1	0xbd82e504	-0.063913375
2	0xbd602a03	-0.054727565
3	0xbdf78ecb	-0.120877825
4	0xbcfcd3db	-0.03086274
5	0xbd4b423b	-0.04962371
6	0x3dd14f5a	0.10220213
7	0xbddc1fe3	-0.107482694
8	0x3de934e8	0.11387044
